results/models/baseline_ae.pth (torch, 46021 bytes, 7 tensors)

encoder.0.weight f4 [32, 1, 3]
000000 d5 98 e6 3e a8 23 fb 3e 41 16 04 be d3 2a 0f 3f
       0.45038477 0.4905064 -0.12899114 0.5592472
000010 fe 92 98 bd 1b 72 0e 3e 10 08 77 be 50 9a b8 3e
       -0.074499115 0.13910715 -0.2412417 0.3605523
000020 df c3 08 3f 85 99 ef be d6 f5 1b 3f 66 42 7f 3e
       0.53423876 -0.46796814 0.6092199 0.24927673
000030 ad 70 f4 3e c0 da 1a 3e 69 c8 a6 3e 31 9e ce bd
       0.47742215 0.15122509 0.32574776 -0.10088766
000040 36 39 e7 3e a9 f1 97 3d b5 8f 95 be 83 b3 29 3e
       0.45160836 0.0741914 -0.29211202 0.16572385
000050 b3 18 92 be 3c aa 8a bd 9e 1f 70 be 3c 18 c4 3e
       -0.2853447 -0.06770751 -0.23449561 0.3829974
000060 9c 4f 23 bf 16 72 e8 be 7e 34 40 be f7 bc b1 be
       -0.6379335 -0.4539954 -0.18770024 -0.3471448
000070 21 33 5f 3d 0a fb 11 bf f7 28 10 3f 45 88 de be
       0.05449212 -0.5702368 0.5631251 -0.4346334
000080 df 3a f8 3e 87 89 dd 3d 04 8a 28 be 77 f5 cb 3e
       0.48482415 0.10817247 -0.16458899 0.39835712
000090 9a d5 11 3e 4b 0b 01 3f b0 30 e2 3d 63 73 3a be
       0.14241639 0.50407857 0.11044443 -0.18208079
0000a0 fb d8 1e 3e b6 52 20 be 27 e0 79 3e f2 ce 03 3f
       0.15512459 -0.15656552 0.24401914 0.5148765
0000b0 91 96 a9 3e d1 3d 8d be fb ac b5 3e 69 5d f4 3d
       0.33122686 -0.27586225 0.35483536 0.11931879
0000c0 9c a9 c4 3e a7 ee 87 be 68 1d f4 be 3e 6b 64 be
       0.38410652 -0.26549265 -0.47678685 -0.22306535
0000d0 09 bc e2 be d5 8d f2 3e f8 5b 84 3e c7 59 b0 3e
       -0.44284084 0.47373834 0.25851417 0.34443495
0000e0 0f 6e 88 3e f3 8c 87 3d 84 f6 d7 3e db 19 0d bf
       0.26646468 0.06618681 0.42180264 -0.5511758
0000f0 8d 0e 7e 3d 69 03 ca be f9 5e 50 3e e2 99 4b be
       0.062025595 -0.39455727 0.20348729 -0.1988292
000100 c5 27 35 3e 83 58 f6 bd 6f 0d 16 3f ec 38 ba be
       0.17690952 -0.12028601 0.5861425 -0.36371553
000110 a4 ff 0b bf 22 8b 87 be 76 be 15 3f 82 fd 8b 3e
       -0.5468695 -0.26473337 0.58493745 0.2734185
000120 6b 01 2b 3f 7b c5 ba be 30 82 e3 be 52 64 05 bf
       0.6679904 -0.3647879 -0.44435263 -0.521062
000130 7c 1b 9c be 8d 46 cc 3e 0e ae 52 3e af 7a f5 3e
       -0.3048972 0.39897576 0.20574209 0.47945163
000140 3b 7a 9d be 2b 84 c9 be 36 d7 9c 3e e8 f7 6e be
       -0.30757317 -0.3935865 0.30632943 -0.23336756
000150 c7 fc b1 3e b4 b5 f6 bd 98 91 a7 3e a1 ac e5 be
       0.34763166 -0.12046376 0.32728267 -0.44858268
000160 18 2d 95 be b7 3e 34 3e a0 82 2b 3e 83 13 a8 bd
       -0.29135966 0.17602049 0.16749048 -0.082068466
000170 6b a1 cb 3e 31 f4 c8 3e 19 5d d6 be 2f d0 9d be
       0.3977159 0.39248803 -0.41867903 -0.30822894

encoder.0.bias f4 [32]
000000 a5 19 0d 3f fa 1b 44 be 8c fb 46 be 7e 1b e0 be
       0.55117255 -0.19151297 -0.19431895 -0.43770975
000010 de a1 93 be d4 82 28 3e c3 e4 74 bd 06 93 d6 be
       -0.28834432 0.16456157 -0.059788477 -0.41909045
000020 f1 ae 1e 3e d2 eb c9 be fb ce eb be 3e cc 90 be
       0.15496422 -0.3943773 -0.4605635 -0.28280824
000030 3b f0 f1 be ce 38 bc be b2 e7 17 3f c6 47 f7 3d
       -0.47253594 -0.3676209 0.59337914 0.120742366
000040 0f a5 7d 3e 30 da 09 bf 53 59 8b be ca 59 1e be
       0.24769996 -0.5384855 -0.27216586 -0.1546394
000050 4b c3 fc 3d c8 0d 02 bf c5 b4 0b be bf 13 8c be
       0.12341937 -0.5080228 -0.13643177 -0.27358815
000060 12 ad b6 3d c5 ab c7 bd a3 a7 20 3c 42 4f c8 be
       0.08919729 -0.09749559 0.009805593 -0.3912297
000070 1d 21 d1 be 9d 74 ac be e8 ef 14 be 66 50 e9 be
       -0.40845576 -0.3368272 -0.14544642 -0.45569152

encoder.3.weight f4 [64, 32, 3]
000000 b3 64 a0 3d f9 09 e1 bc b1 9a a5 3d 6a 61 c5 3c
       0.07831707 -0.027470576 0.08086146 0.024094302
000010 d7 1e c1 bd 25 71 86 3d 3c ce 13 bd 4a 43 35 bd
       -0.0942971 0.06564549 -0.036085352 -0.044253625
000020 73 e0 b1 bd 75 cd cf bd 37 4d b7 3d 49 62 09 3d
       -0.086853884 -0.1014661 0.089502744 0.033540998
000030 99 c7 00 3d 48 59 ba bd 0e c9 9e 3d 41 71 a8 bd
       0.03144035 -0.0909906 0.07753192 -0.082247265
000040 01 3d c9 bc 2c 62 6c 3c 30 d1 57 3d 1d bf a8 3d
       -0.024565222 0.014427703 0.05268973 0.08239577
000050 5c 69 be 3d 34 bd a5 bd c8 6a d2 3c 03 d0 33 bd
       0.092974395 -0.08092728 0.025685683 -0.043899547
000060 64 79 16 3d 8d 82 4d bd de 85 aa 3d a2 69 99 bd
       0.03673686 -0.05017333 0.083263144 -0.07490851
000070 e4 6c 5f 3d 03 eb 12 3d 71 35 10 3d bd 50 52 bd
       0.054547206 0.035868656 0.035207216 -0.05134653
000080 34 cf ef 3d 36 2a bf 3c b0 36 06 3d 81 85 b9 bd
       0.11709443 0.023335557 0.032766998 -0.09058667
000090 a0 f1 35 3d 40 58 75 bc 84 fd 00 3c 2a 8a b3 3d
       0.044419885 -0.014974654 0.007872943 0.08766587
0000a0 e4 67 ba 3c 8e 4b 67 bd e7 65 71 bd 19 87 44 bc
       0.022754617 -0.05646854 -0.058935072 -0.0119951
0000b0 20 46 4d 3d 52 63 08 bd d0 e7 84 bd e9 cc 2a bd
       0.050115705 -0.033297844 -0.06489527 -0.041699324
0000c0 c9 ab a3 bd 79 96 f4 3c 88 c4 8d 3d 66 c8 c4 bd
       -0.0799175 0.029856907 0.06922251 -0.096085355
0000d0 dd 2e c2 3c 93 f5 57 3d e7 54 1b 3a 6c ea 1f 3c
       0.023703987 0.052724432 0.0005925432 0.00976048
0000e0 9e 9d fc 3d b0 d7 49 3d ec b1 ef 3c bb 0f c7 bc
       0.123347506 0.04927796 0.029259644 -0.024299493
0000f0 96 62 08 bd f8 c6 b2 3b 8c b6 d3 bc 0d 28 f9 bc
       -0.033297144 0.005455848 -0.025843881 -0.030414606
000100 e9 9b 85 3d 67 a2 b3 3d ba 8a 25 bc d0 32 bb bc
       0.06523878 0.0877121 -0.010103876 -0.022851378
000110 3a 87 2f 3a db f8 94 bc b7 92 b6 3d 3b 6b 95 3d
       0.00066958705 -0.01818507 0.089147024 0.07295843
000120 9a ed 9d bd 67 11 0c bd 40 a7 96 3d 0e b5 22 3d
       -0.077113345 -0.034196284 0.07356119 0.03972345
000130 66 27 a5 3d 77 e4 44 bd d1 84 8f bd 3f 36 c9 bd
       0.08064155 -0.048069444 -0.070077546 -0.098248
000140 7c ba 23 bd 0c 2d 0d 3d 16 47 85 3d c7 02 41 3d
       -0.039972767 0.03446679 0.06507699 0.04712179
000150 42 54 ad bd 82 61 75 bd 5c cf 0f 3c cc 32 ca 3d
       -0.084633365 -0.059907444 0.008777466 0.0987297
000160 e4 e4 71 3c 04 86 d8 bc 0e 73 f9 3c 04 51 0b 3c
       0.014764044 -0.026431091 0.03045037 0.008503202
000170 8b 71 8c bb 36 90 98 3d 1d 16 3e bd d7 9b a7 bc
       -0.0042859963 0.07449381 -0.046407808 -0.020460052
000180 83 5b e8 bd 12 d1 5a 3d e8 6f 80 3d ff e0 eb 3c
       -0.113455795 0.05342204 0.062713444 0.02879381
000190 dc fc ec bd dc ef 09 be a0 f7 bb bd da a4 3d 3d
       -0.115716666 -0.13470405 -0.0917809 0.046299793
0001a0 d0 cb 25 3c d6 e4 af 3d 47 95 3d 3d c5 9b d3 3c
       0.0101193935 0.08588569 0.04628494 0.025831113
0001b0 6d 6f ef bb 96 06 14 be 04 6e 23 be eb 36 db bd
       -0.007306984 -0.14455637 -0.15959936 -0.10703834
0001c0 63 df da 3c 5e 39 85 bd 0a 44 a8 bc c3 b1 81 bd
       0.026717847 -0.065050825 -0.020540256 -0.063327335
0001d0 13 5b 98 bc 26 1e 93 bd 39 94 88 bd a4 ab 0a 3d
       -0.018598115 -0.07183485 -0.06668896 0.033855096
0001e0 b8 63 1a bd 3d 96 6e 3d 39 61 30 bd 20 55 99 bd
       -0.037692755 0.058248747 -0.04306147 -0.074869394
0001f0 ef 84 93 bc 98 a5 4a bd a4 cb ff bc 97 2d e1 bd
       -0.018007724 -0.04947433 -0.031225033 -0.10995024
000200 3a 12 26 3d f2 4d 89 bd 12 1e 52 3d eb b3 3d 3d
       0.040544726 -0.0670432 0.05129821 0.04631416
000210 3d 55 95 3d 2f 6e da bd 34 4f 59 3d ce a1 45 bd
       0.072916485 -0.10665547 0.05305405 -0.048250012
000220 c4 1f 1b 3d f4 4b c4 3d 69 fe d5 bc 80 80 7b bc
       0.03787209 0.095847994 -0.026122289 -0.015350461
000230 cb a2 1c bd 54 da c6 bd ac 3d 07 3d 93 41 ee bd
       -0.03824119 -0.097096115 0.0330178 -0.11633601
000240 1a 28 40 3d 23 fa 64 3d 18 12 a1 3d 95 37 c5 bc
       0.046913244 0.05590261 0.07864779 -0.024074355
000250 ff bd ab bd 9a fa bb 3c af f0 66 3d 71 12 32 be
       -0.08385848 0.022946645 0.056381878 -0.17389847
000260 df 02 c4 bd 96 d5 7e bd 33 fb d3 bc 6a 53 37 bd
       -0.0957086 -0.06221541 -0.025876617 -0.044757284
000270 4b 4c 65 bd 2c 46 41 bd 31 2d e9 bd 4b 81 ab 3d
       -0.05598096 -0.04718606 -0.11385573 0.0837427
000280 0a 3b af 3d 34 28 83 bc 77 91 47 bc 5a 5b 72 bd
       0.08556183 -0.016010381 -0.012180678 -0.05916915
000290 1a 7b d9 bd e2 68 cb bd db 60 f9 bc bd 06 d5 bd
       -0.10619183 -0.09932114 -0.030441692 -0.10401676
0002a0 09 1f c1 bd ec 41 57 bd f2 e6 83 bd f8 dc f8 bc
       -0.094297476 -0.052553102 -0.06440534 -0.030378804
0002b0 85 9c 0f 3c 7a 58 b1 bc f7 5c 32 bd a5 51 87 bd
       0.0087653445 -0.021648634 -0.04354569 -0.06607369
0002c0 6a 3f c7 bd 74 44 af 3d f7 4b 27 bd 20 8c dd 3c
       -0.09728892 0.08557978 -0.04084393 0.027044356
0002d0 3d 0c 11 bd bd de 99 3b 08 48 bd 3d 78 9a 40 3d
       -0.035412062 0.004695742 0.092422545 0.047022313
0002e0 ae 23 b5 bd 7a ec 25 3d ad d4 cf 3d 6c e3 c9 bc
       -0.08844696 0.040508725 0.101479866 -0.024644576
0002f0 83 d8 99 bc c4 12 ce 3d 16 1d 80 bc e4 88 ad 3c
       -0.018779999 0.10062173 -0.01563887 0.021183439
000300 42 f5 02 bd 34 9c a7 3c 9d d3 f1 3d 91 ae b8 3c
       -0.031972177 0.020460226 0.1180794 0.022544177
000310 f4 ba 64 bd 3e 93 90 bd e9 bd 3e bd bb c9 b5 bd
       -0.055842355 -0.07059334 -0.04656783 -0.08876368
000320 52 1f f7 bd 47 b2 6e bd fe c5 05 bd 50 70 38 bd
       -0.12066521 -0.058275487 -0.032659523 -0.045028985
000330 86 ae ee bd a1 d7 ce bd fc 44 d7 3c a0 d0 c5 bc
       -0.116543815 -0.10099722 0.026278012 -0.024147332
000340 e8 95 19 3d db 20 c5 3d 23 86 2f bd ef 45 08 bd
       0.037496477 0.09625407 -0.042852532 -0.03326982
000350 21 89 aa bc 3a ce c5 bc 81 f6 53 bd cc 54 ba bd
       -0.020817341 -0.024146188 -0.051748756 -0.09098205
000360 ab d5 8a be 9d ee 72 be 03 89 b4 bd 28 ec 49 bd
       -0.2711614 -0.23723836 -0.088151954 -0.04929748
000370 69 5d 8c bd fb a9 ca 3c 06 78 ab 3d 3d c1 ec 3d
       -0.06853754 0.024739256 0.08372502 0.11560295
000380 b6 7b 05 3e 14 71 38 3d 9c 33 00 be cc 46 3b bc
       0.13035473 0.045029715 -0.12519687 -0.0114304535
000390 25 92 98 3b 7e ec 02 bd f3 fe 81 bd 24 45 c7 3d
       0.0046560937 -0.031963818 -0.06347456 0.097299844
0003a0 67 5c 1c bd 29 03 6e bd 81 09 4a bd 58 b2 43 3d
       -0.03817406 -0.058108483 -0.04932547 0.047777504
0003b0 71 5d af 3d 5d 8c b0 3d 50 17 98 3d 3f f8 fa bc
       0.085627444 0.08620522 0.074263215 -0.030635951
0003c0 d2 68 a1 bd 25 17 32 3b 79 1a f4 3d 08 2e 71 3d
       -0.07881321 0.002717444 0.11919112 0.05888179
0003d0 9f 66 73 bd 5c 10 59 bc f0 fa 0b be aa 87 a6 bd
       -0.05942404 -0.013248529 -0.13669944 -0.081313446
0003e0 8b a8 d9 bc 90 eb 7a 3c b7 21 b3 3a 2d d7 72 be
       -0.026569625 0.015314952 0.0013666664 -0.23714896
0003f0 5a d8 0c 3e ab 1c e5 bc 87 91 8a 3d 85 e2 b0 3d
       0.13754407 -0.027967772 0.067660384 0.08636955

encoder.3.bias f4 [64]
000000 4e 83 95 bd ec d7 71 3d db 14 eb 3d 87 a4 c3 3d
       -0.07300435 0.05904381 0.11478587 0.095528655
000010 0a 26 a0 bb 3a 53 4b 3d 1d a8 0c 3d df f2 50 bd
       -0.004887347 0.049639918 0.034340013 -0.05101287
000020 3f f8 ce bd f4 d9 0d bb 5f 57 e2 3c 2c de a2 3d
       -0.10105943 -0.0021644803 0.027629552 0.07952532
000030 0f db c6 3c 6f bc 7f 3d e2 14 b2 3d c9 87 2a 3a
       0.024274377 0.062435564 0.08695389 0.0006505219
000040 10 e6 92 3d 10 7e 0c bb 6e 0d 14 bd 74 56 22 bd
       0.07172787 -0.0021437444 -0.03614562 -0.03963323
000050 b1 91 26 bd 2f 67 91 bd 84 b3 74 3d 5e 5c a7 3d
       -0.040666286 -0.07099759 0.059741512 0.081719145
000060 e6 68 21 3d 6e 4f ef 3c a5 a0 f3 bc 23 ca 5d bd
       0.03940668 0.02921268 -0.029739687 -0.05414785
000070 e5 a6 49 bc 7e 7d 9b 3d a7 e0 65 ba 75 d2 1d bd
       -0.012307857 0.07592295 -0.00087691325 -0.038530786
000080 c2 d8 47 3d ef 27 03 bd 82 bf 22 bc 95 3b d7 3d
       0.0487907 -0.032020506 -0.009933354 0.10509411
000090 f7 32 2e bd 69 02 b9 3d 95 e0 03 bd 2d ed b7 3d
       -0.042529073 0.09033663 -0.0321966 0.089807846
0000a0 b5 5b f3 3c 94 db 27 3d cc 8e e3 b9 7f 4f 90 bb
       0.029706815 0.04098089 -0.00043403206 -0.004404008
0000b0 2f c6 59 bd c9 72 c8 bd 42 0a bc 3d 92 07 b9 3d
       -0.05316752 -0.097875185 0.09181644 0.09034647
0000c0 fd f3 15 3d 03 6f b0 3a 9c fa 2f 3d 3b f0 ba bb
       0.03660964 0.0013460818 0.04296361 -0.0057049072
0000d0 84 ae b4 bd a1 e7 a6 bd d5 a3 66 3d d7 3f 2d bd
       -0.08822349 -0.081496485 0.056308586 -0.04229721
0000e0 09 7a 22 bd 2f 4e 8a bd 5d a9 ce 3c 3e f5 52 bd
       -0.039667163 -0.067531936 0.025227243 -0.051503412
0000f0 fa 06 a0 bc 0d 99 36 3d db c0 a5 3d c1 4c 0b 3e
       -0.019534577 0.044579554 0.08093425 0.13603498

decoder.0.weight f4 [64, 32, 2]
000000 85 27 44 3d 62 41 27 3b 9a 67 c0 3d fc 6c e7 3d
       0.04788925 0.002552115 0.093947604 0.11300084
000010 32 84 7b 3d e0 81 16 3d 91 58 b5 3c 39 24 a3 3b
       0.06140537 0.036744952 0.022136958 0.0049786833
000020 02 15 ac 3d 50 d5 10 3d a8 14 d5 bd 12 5d 94 bd
       0.084024444 0.03535968 -0.104043305 -0.07244314
000030 87 ff f8 bd d3 45 39 bd 1f 75 06 3c ab f1 52 bd
       -0.12158113 -0.045232605 0.008206635 -0.051500004
000040 9f da f1 bd fa 9e ac bd 6b db e6 3d e0 43 10 bc
       -0.11809277 -0.0842876 0.112723194 -0.008805245
000050 a0 ac ab bc e0 d7 c1 3c 5c bd 01 bd 5c 83 8b bd
       -0.020956337 0.023662508 -0.031674728 -0.06812164
000060 17 ea 62 bd f4 b0 50 bd 3f 75 e9 bd a4 a2 e3 bd
       -0.055399027 -0.050950006 -0.11399316 -0.111150056
000070 9c c9 20 bd f1 4c 62 3d 76 5b fa 3d 80 b9 5d bb
       -0.03925477 0.05524916 0.12224476 -0.003383249
000080 e0 a4 0b 3e 7e d0 13 3d 1b d3 b5 bd af 10 3d bc
       0.13637114 0.036087506 -0.08878156 -0.011539622
000090 15 99 0f bd fb 52 d8 bd 5b 7b bc 3c a8 86 10 3d
       -0.0350581 -0.10562702 0.02300804 0.03528467
0000a0 9a 8f c7 bd 04 df d5 bc d8 e6 d2 bd 32 92 00 3e
       -0.09744187 -0.026107319 -0.10297936 0.12555769
0000b0 6c 6a 97 3d 4c 23 41 bd 3e 14 dc 3d f0 ab 99 bd
       0.07393345 -0.047152802 0.107460484 -0.075034976
0000c0 67 34 c7 3d e1 e6 5a bd 2d 95 0c 3d da e4 b1 3d
       0.09726792 -0.05344284 0.034321953 0.08686228
0000d0 a4 5f 6e 3d 80 25 f8 3c b0 62 b6 bc ed bb e7 bb
       0.05819668 0.030291319 -0.022263855 -0.007071963
0000e0 d3 87 9d 3d 5d 37 49 bd 84 98 3f bd e1 37 04 3c
       0.07691922 -0.049125064 -0.04677631 0.008069963
0000f0 68 bd 7c bd c7 d4 85 3c 27 1e 13 3b 30 3a b0 3d
       -0.06170407 0.016336812 0.0022448392 0.086048484
000100 66 63 4b 3d b4 c4 9b bd 44 94 9a 3d 93 db c3 bc
       0.04965534 -0.076058775 0.07547811 -0.023908412
000110 28 c3 5c 3d 00 35 f1 3b a3 ae 98 3d d3 93 20 bd
       0.053897053 0.0073610544 0.07455184 -0.039203476
000120 5c 09 50 bd 50 fd cb bc 79 21 5f 3c 4f 34 5b bd
       -0.050790176 -0.024901062 0.01361882 -0.053516682
000130 d3 e2 69 3d 95 fe a4 bd 0d 80 04 3d 2e 15 b9 bd
       0.057101082 -0.0805637 0.03234868 -0.09037243
000140 a3 dc 08 bd c1 f3 17 bd d0 cb a3 bd 90 d3 85 3d
       -0.03341354 -0.037097696 -0.079978585 0.06534493
000150 c8 95 e4 bd 83 5f b5 3c 9f b8 b7 bc 54 23 85 bd
       -0.11161381 0.02214027 -0.022426901 -0.06500879
000160 1d 50 cd 3d 3e b5 a0 3d 58 a7 57 3d dc ea 34 3c
       0.10025046 0.07847069 0.052649826 0.011042323
000170 e8 37 b4 3d ab ba 27 bd 82 dc e0 bd 58 a8 f5 3d
       0.08799726 -0.040949505 -0.109795585 0.11995
000180 c2 5c 57 bd 11 c3 1f 3c c0 99 23 3b a8 84 d7 3d
       -0.052578695 0.009751097 0.0024963468 0.10523349
000190 20 61 ed 3d 4c de c9 bd ed 39 b9 ba af 15 cd bd
       0.11590791 -0.09856853 -0.0014131643 -0.100139014
0001a0 22 58 a5 3d 63 08 fb 3d 5e c4 11 bd 70 50 e3 3c
       0.080734506 0.12257459 -0.03558766 0.027748317
0001b0 00 77 e1 bc 18 13 f8 bc fa f9 d5 3d 4c bc db bd
       -0.027522564 -0.030282542 0.1044807 -0.10729274
0001c0 95 c8 11 bd 3f 37 8a bc 30 67 f7 bd c8 87 52 3d
       -0.03559168 -0.016872047 -0.12080228 0.051399022
0001d0 9a b7 aa 3d 0e 5b cb bd 19 3c 0c 3d a3 65 c3 bc
       0.083358005 -0.09929477 0.034237 -0.023852175
0001e0 35 29 09 3e 1c 3f f1 bd c8 17 ba 3d 27 fa 7b bd
       0.13394625 -0.11779615 0.09086567 -0.06151786
0001f0 b8 d9 bc 3d 5b b3 a0 bd f0 46 1c 3c c4 81 62 3c
       0.09221214 -0.07846709 0.009538397 0.013824884
000200 9a bd 1b 3e b3 63 c8 3d ec 11 8f 3d d0 bb 4e 3d
       0.15209046 0.09784641 0.0698584 0.05047208
000210 d8 9c c1 bc 00 3f be 3a 12 72 ce 3d 2e cf c7 3d
       -0.02363436 0.0014514625 0.10080351 0.09756313
000220 d3 92 9e bd fa 1a b0 3d 31 a3 05 3e 35 b4 ba 3c
       -0.07742848 0.08598895 0.13050534 0.022791008
000230 4d 0c 8b 3d bc 33 95 bc e2 c2 b8 3d 55 4a 14 bd
       0.067894556 -0.018213145 0.09021546 -0.0362037
000240 4c 5f 88 bd 37 a9 90 3d 2f c0 8a 3d 40 e4 ce bd
       -0.066588014 0.07063525 0.06774937 -0.10102129
000250 6b 97 3e bc 2c 3f b1 3d 24 77 a6 bd c8 42 80 bc
       -0.011632781 0.08654627 -0.08128193 -0.015656844
000260 65 81 a3 3d d2 27 d7 3d c9 d0 3f 3e ad 83 1a bd
       0.079836644 0.10505642 0.18731989 -0.037723232
000270 20 f9 83 bd e3 4d 1a 3e 81 27 94 bc 78 0f d4 3d
       -0.06444001 0.15068774 -0.018085243 0.10354513
000280 e1 1c be 3d 5f aa ce bd 76 98 a2 bc 04 d7 02 bd
       0.09282852 -0.100910895 -0.01984809 -0.031943336
000290 46 9f 59 bd 88 45 d7 3d ce e2 12 bc 42 09 97 bd
       -0.05313041 0.10511309 -0.008965207 -0.07374813
0002a0 a0 d4 e9 bd 7f 0e 14 3e 32 7f 65 bd 9c 87 0e 3e
       -0.11417508 0.14458655 -0.056029506 0.13918918
0002b0 90 51 33 bd d0 76 bb bc 2e 0e e8 3b c5 a8 33 3e
       -0.043778956 -0.022883803 0.0070817685 0.17544849
0002c0 fa d4 b6 bd 39 7d 0b be 2c 48 56 bd d0 ab 78 bd
       -0.08927341 -0.13621987 -0.052314922 -0.06071073
0002d0 f0 6a 3c bd 32 fe 93 3d 0c bc 84 bd 16 45 76 3d
       -0.04600042 0.07226218 -0.064811796 0.06012448
0002e0 1d 4e 03 3d 29 df 94 3d 7e a1 82 3d 34 f4 5e 3b
       0.032056917 0.07269127 0.063784584 0.0034020068
0002f0 5f ae 9e bd 11 e6 2a 3d c0 46 c4 3c 69 ca 5b bc
       -0.077481024 0.041723315 0.023959517 -0.013414958
000300 e8 52 51 3e ba 8e 9a 3c 60 f8 33 3d 52 0d 0d 3d
       0.20441782 0.018866885 0.04393804 0.03443653
000310 b9 ca 7d 3d c0 4f b0 bb e1 02 dd ba 87 07 39 3d
       0.06196091 -0.0053806007 -0.001686182 0.045173194
000320 41 ee a4 3d d4 ef 9c 3d b0 61 29 3d fe 47 1c 3e
       0.08053256 0.07662931 0.041352928 0.15261838
000330 6d df da 3d b5 41 22 3d e2 2e e0 3d 5d de f7 bc
       0.10687146 0.039613444 0.10946442 -0.030257398
000340 d7 40 03 be 9a 24 2d bd 54 07 d8 bd dc 9c 33 3d
       -0.12817703 -0.042271234 -0.10548273 0.043850765
000350 6d 21 f0 bd aa f0 e3 bd c3 0d b3 bd aa 4c 93 3d
       -0.117251255 -0.111298874 -0.08742859 0.07192357
000360 6a 4c d3 3d b0 2c d7 bd 02 22 69 3c 30 63 a6 3d
       0.10317309 -0.1050657 0.0142292995 0.08124387
000370 02 fe e2 3c b5 da 2f bd f4 28 e4 3c 8e fe e2 bd
       0.027709011 -0.042933185 0.02785156 -0.11083709
000380 9e 9b 19 3c 78 cc 8f bc 1a 73 c3 3d b5 17 ff bd
       0.009375481 -0.017553553 0.09543438 -0.12455694
000390 82 27 bf 3d 4c af 70 3d 36 f8 e5 3d 11 f4 e0 3d
       0.093337074 0.058760926 0.11228983 0.10984052
0003a0 f0 63 ff bc 16 1e 9a 3c 86 e1 58 3d b5 ba 0d 3e
       -0.031175584 0.018813174 0.05294945 0.13840754
0003b0 8c b7 5d bd 70 10 a9 3d 4a e1 06 3d db 9d 2e 3e
       -0.054130122 0.08255088 0.032929696 0.17052405
0003c0 bb b2 9e 3d e1 30 a5 3d 43 21 63 be 7e be 86 bd
       0.07748934 0.080659635 -0.22180657 -0.06579302
0003d0 42 a2 b5 bd 1c 3a 7e 3d ea 22 57 3c 9c 3e 01 3d
       -0.08868839 0.062067136 0.013130883 0.03155385
0003e0 7c 51 04 3e b9 a8 7f bc 33 4a 8b bc 29 4e a3 bd
       0.12921709 -0.015604191 -0.017003154 -0.07973892
0003f0 c0 60 a7 3d f2 d5 e8 bd c8 f9 fc bd 97 a6 c0 3c
       0.081727505 -0.11368932 -0.123523295 0.023516936

decoder.0.bias f4 [32]
000000 c5 11 c9 3d 22 e8 c6 bd 18 09 bd bd e1 c6 00 3d
       0.098178424 -0.097122446 -0.0923025 0.031439666
000010 60 6e f4 bc d4 c2 53 3d 00 ab ca 3d cf 7d 0f 3e
       -0.029837787 0.051699474 0.09895897 0.14012836
000020 05 47 6e 3d c1 c4 ac bd 1a 17 24 bd 1d e5 32 3b
       0.0581732 -0.08435965 -0.040061094 0.0027297207
000030 fe 53 01 be d3 31 00 3e dc 4e cb 3d 24 2e 9a bd
       -0.12629697 0.12519006 0.099271506 -0.07528332
000040 a8 aa 19 bd 54 e3 81 bd 4c 91 21 3d cc 57 ca 3c
       -0.037516266 -0.063421875 0.039445207 0.024700068
000050 45 39 d9 bc e5 e9 b2 3d b8 5a dd bc 7c db f3 3c
       -0.026516566 0.08736018 -0.027020797 0.029767744
000060 cb 25 92 3d 7a 7f 92 bd a0 1b ec bd 45 a4 58 3d
       0.07136115 -0.071532205 -0.115287066 0.052891035
000070 c3 0e 4b bd b3 ec 02 3d 5a f6 16 bd b5 bb 8d 3d
       -0.049574625 0.031964015 -0.036856033 0.06920568

decoder.2.weight f4 [32, 1, 2]
000000 d1 b9 5c bd 61 0f b1 be 80 33 ed be e8 a4 fe 3e
       -0.053888146 -0.34582046 -0.46328354 0.49735188
000010 7e f9 ee be 8f 86 3e 3e a9 bb 07 3f 8c 3a 14 bf
       -0.46674722 0.18606018 0.5302072 -0.57901835
000020 ae df 14 bf aa 67 b1 3d bd 1f 9d be 4f 66 0b bf
       -0.5815381 0.086623505 -0.30688277 -0.54452986
000030 55 1e e4 3e 29 87 2d bf da a3 b1 be fc d3 1c bf
       0.44554392 -0.67784363 -0.3469532 -0.6126096
000040 da 08 48 3e cc 84 ac 3d 51 c3 a0 3e 69 01 aa 3e
       0.19534627 0.084237665 0.31399015 0.332042
000050 4d 4b b3 3c be f6 40 be 2c 15 1e 3f 99 59 fb 3c
       0.021886492 -0.18844125 0.61751056 0.030682372
000060 ff 03 06 3d b2 82 2f bf c8 9b 39 bf 9b c4 c0 be
       0.032718655 -0.685588 -0.7250333 -0.37649998
000070 18 1f cf be b6 83 2b 3e 4e 82 9b be 54 6f ac 3d
       -0.4045341 0.16749462 -0.30372852 0.08419672
000080 d3 a8 27 3f 93 17 22 be 57 50 97 3e bc 96 bd 3d
       0.6549198 -0.15829305 0.29553482 0.09257266
000090 76 4c f7 3e 39 03 a8 3e 11 44 cd 3b 63 e9 d2 3e
       0.48300523 0.3281496 0.0062642177 0.41193685
0000a0 69 86 79 bd 3c e7 01 be 78 5f 9c be 2f 43 1a bf
       -0.0609192 -0.12685865 -0.30541587 -0.60258764
0000b0 cf 35 17 3f 74 6c e5 be fb 01 33 bf ab 11 a6 be
       0.5906648 -0.44809306 -0.69924897 -0.32435355
0000c0 b1 06 12 3e bb 8c 8c bd f9 72 a9 3e 54 87 f5 3e
       0.14260365 -0.0686278 0.3309553 0.4795481
0000d0 3a eb d4 3e 4f e1 17 bf 2e 83 8d 3e 4c c3 ac 3e
       0.41585714 -0.5932817 0.27639145 0.3374275
0000e0 e7 5e e6 be 58 03 0b bd 12 98 c0 3d b3 98 a7 3d
       -0.4499428 -0.033938736 0.09404005 0.08183422
0000f0 59 d1 ec 3e 0f d5 26 3f ae 68 2a 3f 4f 81 14 3e
       0.4625347 0.6516885 0.6656598 0.14502452
