results/models/mc_dropout_ae.pth (torch, 46177 bytes, 7 tensors)

encoder.0.weight f4 [32, 1, 3]
0	0x3eceaef9	0.4036787
1	0x3ee34b60	0.44393444
2	0xbe30a810	-0.17251611
3	0x3f0d45dc	0.5518472
4	0xbd8365aa	-0.06415875
5	0x3e0f85ec	0.14015931
6	0xbe753fc1	-0.23950101
7	0x3eb1794b	0.34662852
8	0x3f05a671	0.52207094
9	0xbed7260b	-0.42021212
10	0x3f213311	0.62968546
11	0x3e90c9a0	0.28278828
12	0x3eee9fda	0.46606332
13	0x3e1a8ab5	0.15091975
14	0x3ea2219d	0.3166627
15	0xbe08e7d7	-0.1336969
16	0x3ecfc6b0	0.40581274
17	0x3d1c0b1c	0.038096532
18	0xbe97e481	-0.29666522
19	0x3e2bd810	0.1678164
20	0xbe93aa4f	-0.28840873
21	0xbd8aaa3c	-0.06770751
22	0xbe701f9e	-0.23449561
23	0x3ec4183c	0.3829974
24	0xbf3ca499	-0.73688656
25	0xbf0d7350	-0.5525408
26	0xbe6bcfa8	-0.23028433
27	0xbeb1bcf7	-0.3471448
28	0x3d5f3321	0.05449212
29	0xbf11fb0a	-0.5702368
30	0x3f159869	0.58435684
31	0xbec99ea8	-0.39378858
32	0x3f00e9e6	0.503569
33	0x3c6ea6e1	0.014566154
34	0xbe8a53ef	-0.2701716
35	0x3ed5a200	0.4172516
36	0x3e48bd00	0.19603348
37	0x3f057e9a	0.52146304
38	0x3e263695	0.16231759
39	0xbe3a7363	-0.18208079
40	0x3e1ed8fb	0.15512459
41	0xbe2052b6	-0.15656552
42	0x3e254325	0.16138895
43	0x3edcea7e	0.43147653
44	0x3e80fb93	0.25191936
45	0xbea67f11	-0.3251882
46	0x3e926be0	0.28597927
47	0x3d49b6f0	0.04924673
48	0x3eb54c02	0.35409552
49	0xbe938af1	-0.2881694
50	0xbf005db2	-0.5014297
51	0xbe646b3e	-0.22306535
52	0xbee2bc09	-0.44284084
53	0x3ef28dd5	0.47373834
54	0x3e877b0c	0.26461065
55	0x3eb13e2f	0.34617755
56	0x3e8b212e	0.27173752
57	0x3ddfe92a	0.109331444
58	0x3ed13f1f	0.4086847
59	0xbf2d369b	-0.67661446
60	0x3ce4785c	0.027889423
61	0xbed351d8	-0.4127338
62	0x3e309dd6	0.1724771
63	0xbe4b99e2	-0.1988292
64	0x3e3527c5	0.17690952
65	0xbdf65883	-0.12028601
66	0x3f166368	0.5874543
67	0xbe9926e9	-0.299125
68	0xbf14554f	-0.5794267
69	0xbe857057	-0.2606227
70	0x3f12010c	0.5703285
71	0x3e8b04cb	0.27152094
72	0x3f19ca37	0.6007418
73	0xbedbc6ff	-0.4292526
74	0xbf051380	-0.5198288
75	0xbf0d580a	-0.5521246
76	0xbeba6209	-0.3640292
77	0x3eda2123	0.42603406
78	0x3e30012a	0.17187944
79	0x3ed8d75b	0.42351803
80	0xbea0d958	-0.3141582
81	0xbec9842b	-0.3935865
82	0x3e9cd736	0.30632943
83	0xbe6ef7e8	-0.23336756
84	0x3ec5816f	0.38575312
85	0xbd464577	-0.04840609
86	0x3eb8d9b5	0.36103597
87	0xbee5aca1	-0.44858268
88	0xbe952d18	-0.29135966
89	0x3e343eb7	0.17602049
90	0x3e2f9dd8	0.17150056
91	0xbd7d3716	-0.061820112
92	0x3ecac603	0.39604196
93	0x3ec8f431	0.39248803
94	0xbed65d19	-0.41867903
95	0xbe9dd02f	-0.30822894

encoder.0.bias f4 [32]
0	0x3f069951	0.5257769
1	0xbe497171	-0.1967218
2	0xbe51bc77	-0.2048205
3	0xbedf6ca9	-0.4363759
4	0xbe975ae0	-0.2956152
5	0x3e01a536	0.12660679
6	0xbd617c46	-0.055050157
7	0xbed69306	-0.41909045
8	0x3e219183	0.15778165
9	0xbec9ebd2	-0.3943773
10	0xbeec62f9	-0.4616926
11	0xbe7f900b	-0.24957292
12	0xbee947b7	-0.45562527
13	0xbebc38ce	-0.3676209
14	0x3eff3e14	0.4985205
15	0x3dc818cc	0.09770355
16	0x3e7164f0	0.23573661
17	0xbf09da30	-0.5384855
18	0xbe8ac5d4	-0.27104056
19	0xbe2ed7e0	-0.17074537
20	0x3dd8eaea	0.10591681
21	0xbf020dc8	-0.5080228
22	0xbe1e3cb2	-0.15452841
23	0xbe97e222	-0.29664713
24	0x3d449555	0.047993977
25	0xbde6e001	-0.11273194
26	0xbdd498b7	-0.103806905
27	0xbec84f42	-0.3912297
28	0xbec6e349	-0.3884528
29	0xbeac749d	-0.3368272
30	0xbe16e38f	-0.14735244
31	0xbee95066	-0.45569152

encoder.4.weight f4 [64, 32, 3]
0	0x3d9addf2	0.07561864
1	0xbc66ee9b	-0.014094974
2	0x3d9fa233	0.07794609
3	0x3c8e7453	0.017389452
4	0xbdf8c157	-0.12146252
5	0x3d5a3a7f	0.053278442
6	0xbb1b4fa1	-0.0023698586
7	0xbd964263	-0.07336881
8	0xbb1439ed	-0.0022617534
9	0xbda7ab09	-0.08186919
10	0x3e32f838	0.174775
11	0x3df5cd13	0.120020054
12	0x3da0091e	0.07814239
13	0xbe1e894f	-0.15482067
14	0x3e035784	0.12826353
15	0xbd90c3ab	-0.07068571
16	0xbc3c6de4	-0.011500809
17	0x3c7e4a77	0.0155206835
18	0x3d5a6ffd	0.053329457
19	0x3dcec86b	0.100968204
20	0x3dab8807	0.083755545
21	0xbda5bd34	-0.08092728
22	0x3cd26ac8	0.025685683
23	0xbd33d003	-0.043899547
24	0x3e05aed9	0.1305498
25	0xbba1919d	-0.0049306885
26	0x3e6dd7b4	0.23226815
27	0xbd9969a2	-0.07490851
28	0x3d5f6ce4	0.054547206
29	0x3d12eb03	0.035868656
30	0xbd5edef7	-0.054411855
31	0xbdb6678f	-0.08906471
32	0x3d860678	0.065442026
33	0x3d144154	0.036195114
34	0x3d47569e	0.04866659
35	0xbcac62e2	-0.021043245
36	0x3e24ea9a	0.16105118
37	0x3e0ccf39	0.13750924
38	0x3e07ffea	0.13281217
39	0x3db38a2a	0.08766587
40	0x3cba67e4	0.022754617
41	0xbd674b8e	-0.05646854
42	0xbd4aa396	-0.049472414
43	0xbbefcff1	-0.0073184897
44	0x3d4ae93b	0.049538832
45	0xbd05fa04	-0.032709137
46	0xbd3786d7	-0.044806328
47	0xbd1b04b5	-0.037846286
48	0xbdb7e839	-0.0897984
49	0x3d47800b	0.048706096
50	0x3d0fc334	0.03509827
51	0xbdc4c866	-0.096085355
52	0x3cc22edd	0.023703987
53	0x3d57f593	0.052724432
54	0x3db5b66e	0.08872686
55	0xbd4d536b	-0.05012838
56	0x3e1b5212	0.15168026
57	0x3de84f33	0.11343231
58	0x3e224e8a	0.15850273
59	0x3e5e88e1	0.21731903
60	0xbd3d6d80	-0.046247005
61	0xbb2dc88a	-0.0026517236
62	0xbc3fd089	-0.0117074335
63	0xbcf9280d	-0.030414606
64	0x3d859be9	0.06523878
65	0x3db3a267	0.0877121
66	0x3d30edc9	0.04319552
67	0x3d1dc553	0.03851826
68	0x3e66d333	0.22541504
69	0x3b8ffceb	0.004394164
70	0x3d77567a	0.060385205
71	0x3dc06c45	0.09395651
72	0xbe18753b	-0.1488847
73	0xbd290577	-0.041264977
74	0x3dc8c512	0.09803213
75	0x3e1c0a2f	0.1523826
76	0x3d71491d	0.058907617
77	0x3e0a8acb	0.13529508
78	0xbd58d32c	-0.052935764
79	0xbda9ca38	-0.08290523
80	0xbd8773c1	-0.06613875
81	0x3d0d2d0c	0.03446679
82	0x3d854716	0.06507699
83	0x3d4102c7	0.04712179
84	0xbd583a00	-0.052789688
85	0x3d129712	0.035788603
86	0x3e118843	0.14212136
87	0x3dca32cc	0.0987297
88	0x3c71e4e4	0.014764044
89	0xbcd88604	-0.026431091
90	0x3d9de02f	0.07708775
91	0xbd8a4cd3	-0.06752934
92	0x3c74614d	0.014915776
93	0x3d989036	0.07449381
94	0xbd3e161d	-0.046407808
95	0xbca79bd7	-0.020460052
96	0xbd6cbe9a	-0.05779896
97	0x3dc57431	0.096413024
98	0x3dd5110f	0.10403644
99	0x3b6f6078	0.0036526006
100	0xbceb0e75	-0.028693417
101	0xbdbba2b4	-0.091618925
102	0xbd483202	-0.048875816
103	0x3d89bfd1	0.06726039
104	0x3c8c7821	0.017147126
105	0x3def3fbd	0.11682079
106	0xbdd5ee43	-0.104458354
107	0x3d2fbc09	0.042903934
108	0xbcd6f11e	-0.02623802
109	0xbd40c5cb	-0.04706363
110	0xbdb627d9	-0.08894319
111	0xbd4fe9ce	-0.050760083
112	0x3d96fe12	0.07372679
113	0xbc4b9196	-0.012424847
114	0xbca4a900	-0.020100117
115	0xbda04b57	-0.0782687
116	0xbcda01ec	-0.026612245
117	0xbd931e26	-0.07183485
118	0xbd889439	-0.06668896
119	0x3d0aaba4	0.033855096
120	0xbe4679ef	-0.19382451
121	0xbdcbbbc4	-0.09947923
122	0xbe4563ba	-0.19276324
123	0xbd995520	-0.074869394
124	0xbc9384ef	-0.018007724
125	0xbd4aa598	-0.04947433
126	0xbc877d4e	-0.016539242
127	0xbd52887a	-0.051399685
128	0x3d8f50aa	0.06997807
129	0xbdb1a706	-0.08674435
130	0xbc53c9f0	-0.012926564
131	0xbc17acfc	-0.009257551
132	0xbd7f11a4	-0.062272683
133	0xbe1c4a8d	-0.15262814
134	0xbcca48b1	-0.024692865
135	0xbd45a1ce	-0.048250012
136	0x3d1b1fc4	0.03787209
137	0x3dc44bf4	0.095847994
138	0x3cde992f	0.027172653
139	0x3cfc10bd	0.0307697
140	0x3bee836e	0.0072788512
141	0xbcbd7ec3	-0.023131734
142	0x3d9f57cd	0.077804185
143	0xbd6046f9	-0.054755185
144	0x3da0c2da	0.07849665
145	0x3daf7237	0.08566707
146	0x3debe03a	0.11517377
147	0xbcc53795	-0.024074355
148	0xbdabbdff	-0.08385848
149	0x3cbbfa9a	0.022946645
150	0xbd2913f5	-0.041278798
151	0xbdf3468d	-0.11878691
152	0xbdb54fb7	-0.08853095
153	0xbe06e624	-0.13173729
154	0xbde79e60	-0.113095045
155	0xbe505368	-0.20344317
156	0x3d0f61b3	0.035005283
157	0x3c3d72f9	0.011563056
158	0xbd82752f	-0.06370007
159	0x3dab814b	0.0837427
160	0x3daf3b0a	0.08556183
161	0xbc832834	-0.016010381
162	0xbe1e3633	-0.15450363
163	0xbe12e59c	-0.14345402
164	0xbe71437b	-0.23560898
165	0xbdbb8fc6	-0.09158282
166	0x3c26efff	0.010189055
167	0xbd77f779	-0.060538743
168	0xbd47c98c	-0.048776194
169	0xbc3b918e	-0.011448277
170	0xbcdd4e49	-0.027014868
171	0xbe37c700	-0.17947006
172	0xbe2819b8	-0.16416061
173	0xbe32045a	-0.17384472
174	0xbd49b396	-0.049243532
175	0xbc852c6b	-0.016256532
176	0xbd1ec1da	-0.03875909
177	0x3daf4474	0.08557978
178	0xbd274bf7	-0.04084393
179	0x3cdd8c20	0.027044356
180	0xbde542b7	-0.111943655
181	0xbceab531	-0.028650852
182	0x3d0ff8e9	0.03514949
183	0x3d409a78	0.047022313
184	0xbdb523ae	-0.08844696
185	0x3d25ec7a	0.040508725
186	0x3da25c85	0.07927803
187	0x3ce0b9b2	0.027432296
188	0x3cd2f1ce	0.025750067
189	0x3dce12c4	0.10062173
190	0xbc801d16	-0.01563887
191	0x3cad88e4	0.021183439
192	0xbd369a62	-0.044580825
193	0xbbe77ba0	-0.007064298
194	0x3db43cf5	0.08800689
195	0x3a847bd6	0.0010107707
196	0xbd4df800	-0.05028534
197	0xbdf9eb7c	-0.12203118
198	0xbd683e1a	-0.05669985
199	0xbe0cc225	-0.13745935
200	0xbe31b1a7	-0.17352925
201	0xbdfb38a8	-0.12266666
202	0xbe146213	-0.14490537
203	0xbdc5566d	-0.09635625
204	0xbded977a	-0.116011575
205	0xbdb3bcf5	-0.08776275
206	0xbceba5dc	-0.028765611
207	0xbd39a350	-0.045321763
208	0x3b321bda	0.0027177245
209	0x3d828082	0.06372167
210	0xbd32225d	-0.043489803
211	0xbd3b18fa	-0.045678116
212	0xbc375e50	-0.011191919
213	0xbcc5ce3a	-0.024146188
214	0xbd53f681	-0.051748756
215	0xbdba54cc	-0.09098205
216	0xbe8b2a94	-0.27180922
217	0xbe74aaf4	-0.23893338
218	0xbdf000b9	-0.11718888
219	0xbd49ec28	-0.04929748
220	0xbd8c5d69	-0.06853754
221	0x3ccaa9fb	0.024739256
222	0x3deae07f	0.114686005
223	0x3e1f1f3a	0.15539256
224	0x3de823bc	0.11334941
225	0x3d62dce3	0.055386435
226	0xbdcc796d	-0.09984098
227	0xbd2d3aa4	-0.042292252
228	0xb9ea3e59	-0.0004467841
229	0xbd197ce0	-0.037472606
230	0xbe004abc	-0.12528509
231	0x3dc74524	0.097299844
232	0xbd1c5c67	-0.03817406
233	0xbd6e0329	-0.058108483
234	0xbd5a9566	-0.053365134
235	0x3c976a48	0.018483296
236	0x3d522fee	0.05131524
237	0x3d83983d	0.064255215
238	0x3cda4c6e	0.026647773
239	0xbd792a68	-0.060831457
240	0xbdbfce09	-0.0936547
241	0xbc52ef8a	-0.012874493
242	0x3dc858d3	0.09782567
243	0x3d712e08	0.05888179
244	0xbd73669f	-0.05942404
245	0xbc59105c	-0.013248529
246	0xbe2b880b	-0.16751115
247	0xbded53d9	-0.11588258
248	0xbdf93824	-0.12168911
249	0xbced79e5	-0.028988788
250	0xbc9f5938	-0.019451723
251	0xbe972cc2	-0.29526335
252	0x3dde4552	0.108530656
253	0xbd6d9d0c	-0.0580111
254	0x3d29c5e9	0.041448507
255	0x3db0e285	0.08636955

encoder.4.bias f4 [64]
0	0xbda39fb4	-0.07989445
1	0x3defefdc	0.117156714
2	0x3dd0e8e0	0.102006674
3	0x3d92112f	0.07132184
4	0x3d0587d0	0.032600224
5	0x3d0507e7	0.03247824
6	0x3ce40b26	0.027837347
7	0xbd1753bd	-0.036945093
8	0xbdcef83f	-0.10105943
9	0xbbe3fe5b	-0.006957812
10	0x3cee6721	0.02910191
11	0x3da09934	0.07841721
12	0x3da73636	0.08164637
13	0x3d69d9c0	0.05709243
14	0x3d365774	0.044516996
15	0x3c182ee5	0.009288524
16	0x3d358f6a	0.044326223
17	0x3d2e70ae	0.04258793
18	0xbd36c098	-0.044617265
19	0xbd225674	-0.03963323
20	0xbd384e88	-0.04499677
21	0xbdc67269	-0.09689791
22	0x3d8dd96b	0.06926235
23	0x3db1ba2b	0.08678087
24	0x3daca26f	0.08429419
25	0x3c646307	0.013939626
26	0xbd37fb10	-0.044917166
27	0xbd8df834	-0.069321066
28	0xbcce72cb	-0.025201222
29	0x3c1c3e37	0.009536318
30	0xba9d8288	-0.0012017051
31	0xbd46428c	-0.048403308
32	0x3ccafb37	0.024777992
33	0xbce64a04	-0.028111465
34	0xbcd27387	-0.025689853
35	0x3dc6e0e8	0.09710866
36	0xbd2e32f7	-0.042529073
37	0x3db522f3	0.08844557
38	0xbcc9df6f	-0.024642674
39	0x3d932eb9	0.07186646
40	0x3c9112ed	0.01770922
41	0x3dad3017	0.08456438
42	0xbc0bbbcd	-0.008528662
43	0xbd2c7da6	-0.042112015
44	0xbd408d76	-0.047009908
45	0xbdc872c9	-0.097875185
46	0x3db6b6a6	0.08921556
47	0x3dace298	0.08441657
48	0xbb66b315	-0.0035201956
49	0xbdcf47ef	-0.10121142
50	0x3cad218d	0.021134162
51	0xbac9d98c	-0.0015399917
52	0xbdd1a351	-0.10236228
53	0xbd99e8bb	-0.07515093
54	0x3d425593	0.04744489
55	0xbd3f689b	-0.04673062
56	0xbd3059e4	-0.043054476
57	0xbd7b9bd6	-0.061427914
58	0x3c95c9e7	0.018284751
59	0xbd4b14ae	-0.04958027
60	0xbd071dbd	-0.032987345
61	0x3d1d0c25	0.03834166
62	0x3da887c8	0.08229023
63	0x3e0d998d	0.13828106

decoder.0.weight f4 [64, 32, 2]
0	0x3c987839	0.018612014
1	0xbde805f5	-0.11329261
2	0xbcfb9eaa	-0.030715305
3	0x3dd980a2	0.10620238
4	0x3c8f50c5	0.017494569
5	0x3cedd820	0.02903372
6	0x3d37182c	0.044700786
7	0xbbf57128	-0.007490296
8	0xbd189be7	-0.037258055
9	0xbdb2378a	-0.087019995
10	0xbdddb6b5	-0.10825864
11	0xbd98ef05	-0.07467464
12	0xbe08cdac	-0.13359708
13	0xbd482f19	-0.04887304
14	0xbac44042	-0.0014972764
15	0xbd8dcc3d	-0.06923721
16	0xbdbfecdc	-0.09371349
17	0xbd33da38	-0.04390928
18	0x3df61716	0.12016122
19	0x3e00e994	0.12589103
20	0xbda814f2	-0.0820712
21	0xbdf8ea63	-0.12154081
22	0xbd1b7a96	-0.037958704
23	0x3ba31fbd	0.0049781487
24	0xbdb77e40	-0.08959627
25	0xbe0cdd63	-0.13756327
26	0xbdfc13c1	-0.12308455
27	0xbdf4fe9c	-0.119626254
28	0xbdb34000	-0.087524414
29	0x3c14b3d8	0.009076081
30	0x3dbfd5a0	0.093669176
31	0xbdc56f3d	-0.09640358
32	0x3dab98f4	0.08378783
33	0x3cf8b6e2	0.030360643
34	0xbddbe17b	-0.10736366
35	0xbd8274f3	-0.063699625
36	0xbd395d3d	-0.045254935
37	0xbd9b7634	-0.07590905
38	0x3d0cca7d	0.034372795
39	0x3db48a4f	0.08815443
40	0xbe1fb52a	-0.15596452
41	0xbe067e38	-0.13134086
42	0xbdf07e2a	-0.11742814
43	0x3dd99a1f	0.106250994
44	0x3d833d80	0.064082146
45	0xbd5048cb	-0.05085067
46	0x3d7a4049	0.061096463
47	0xbd955d37	-0.0729317
48	0x3dbd54f4	0.09244719
49	0xbda1a7f1	-0.078933604
50	0x3d2a45bc	0.04157041
51	0x3e5708bc	0.20999426
52	0x3d2d1963	0.04226054
53	0x3cf82580	0.030291319
54	0xbcc5770d	-0.02410462
55	0x3c601a96	0.013678214
56	0x3d6a924f	0.057268437
57	0xbd7c4dc2	-0.061597593
58	0xbc1c08c1	-0.0095235715
59	0x3d8b6226	0.0680583
60	0xbd6415ee	-0.055684976
61	0x3ca68d8d	0.020331169
62	0x3bca80f3	0.0061799227
63	0x3daa4770	0.08314407
64	0x3d3f4a71	0.046701852
65	0xbb8c79ab	-0.004286965
66	0x3dd4f5bb	0.10398432
67	0xbd80e87f	-0.06294345
68	0x3cedfc29	0.029050903
69	0x3b8cbfd5	0.004295329
70	0x3d26af95	0.04069479
71	0xbc942156	-0.018082302
72	0xbd0185db	-0.031621795
73	0x3c515e20	0.012778789
74	0xbbfa4574	-0.007637674
75	0xbd2bd29a	-0.041948892
76	0x3d428562	0.047490485
77	0xbd875007	-0.06607061
78	0xbcb92ba8	-0.022603825
79	0xbd87df64	-0.06634405
80	0xbdd59ee1	-0.10430694
81	0xbdf98b7f	-0.1218481
82	0xbe107a26	-0.14109096
83	0x3c96cbaa	0.018407661
84	0xbe15986a	-0.14608923
85	0x3deca734	0.11555329
86	0xbda0b818	-0.07847613
87	0xbe32bfb5	-0.17455943
88	0x3db21b76	0.08696644
89	0x3df79915	0.12089745
90	0xbb3f38fb	-0.002917825
91	0x3c6eb008	0.014568336
92	0x3db726dd	0.089429595
93	0x3c546c93	0.012965339
94	0xbd2bbee2	-0.041930087
95	0x3e434676	0.19069847
96	0xbd9a7761	-0.07542301
97	0xbbeb759d	-0.0071856515
98	0xbb8edb07	-0.004359606
99	0x3dd2874a	0.102797106
100	0x3ded0762	0.11573674
101	0xbe207238	-0.15668571
102	0xbde47fc4	-0.11157182
103	0xbe429737	-0.19002996
104	0x3e25a35e	0.16175601
105	0x3e615b3e	0.22007462
106	0xbd7fb871	-0.062431756
107	0x3d3ccede	0.04609572
108	0xbd5e9b33	-0.05434723
109	0xbd7f2a2c	-0.062296078
110	0x3db85e3f	0.09002351
111	0xbda539be	-0.08067654
112	0xbd37e3c6	-0.044894956
113	0xbdd34123	-0.10315158
114	0xbe45cb99	-0.19315948
115	0xbcedbbb9	-0.029020177
116	0x3daab79a	0.083358005
117	0xbdcb5b0e	-0.09929477
118	0x3d121934	0.035668567
119	0xbd4ea27d	-0.05044793
120	0x3e02da7a	0.12778655
121	0xbe075707	-0.13216792
122	0x3d09e167	0.033662226
123	0xbddf4419	-0.109016605
124	0x39ebfd29	0.00045011312
125	0xbe20be1e	-0.15697524
126	0xbcd44fdb	-0.025916984
127	0x3c573498	0.013135098
128	0x3e088f81	0.13335992
129	0x3dfeb40d	0.12436686
130	0x3dc45fde	0.09588598
131	0xbd223b2a	-0.039607204
132	0xbd3f1f24	-0.046660557
133	0x3abe3f00	0.0014514625
134	0x3d02d744	0.031943575
135	0x3dc26249	0.09491403
136	0xb8e76ac6	-0.000110348265
137	0x3defbf7d	0.11706445
138	0x3dc0e5e1	0.09418846
139	0xbc8cea65	-0.017201612
140	0x3d4e4fd6	0.050369106
141	0xbc2f26a7	-0.010690368
142	0x3cbe07c0	0.023197055
143	0xbd857623	-0.065166734
144	0xbd9a0bbc	-0.075217694
145	0x3d823917	0.06358545
146	0x3c4ec800	0.012620926
147	0xbe041e8c	-0.12902278
148	0x3b5c826f	0.003364708
149	0x3e3559e9	0.17710079
150	0xbd8b210c	-0.067934126
151	0xbdb68a03	-0.089130424
152	0x3dc07a7e	0.093983635
153	0x3e2485f7	0.16066729
154	0x3dfdcfea	0.12393172
155	0xbd9927e7	-0.07478314
156	0xbd3a05d5	-0.045415718
157	0x3e1af4aa	0.15132394
158	0x3de5d578	0.112223566
159	0x3e3833b9	0.1798848
160	0x3d81b59d	0.06333468
161	0xbda2757a	-0.07932563
162	0x3cdece9a	0.027198125
163	0x3d2c4170	0.042054594
164	0xbd498a84	-0.049204364
165	0x3d8cebd3	0.068809174
166	0xbd1e5be1	-0.03866184
167	0xbdda9d79	-0.10674567
168	0x3bc325f9	0.0059554544
169	0x3e47a493	0.19496374
170	0xbda88b94	-0.082297474
171	0x3dd821ce	0.10553323
172	0xbd8f52bc	-0.06998202
173	0xbd66a04f	-0.056305226
174	0x3d5db085	0.05412342
175	0x3e0e397a	0.13889113
176	0xbdeb68d9	-0.114946075
177	0xbe18616f	-0.14880918
178	0x3d06b351	0.032885853
179	0xbdf50974	-0.11964694
180	0xbd5047d1	-0.05084974
181	0x3d93fe32	0.07226218
182	0xbd822129	-0.06353981
183	0x3d8ad261	0.06778408
184	0x3c9cb126	0.01912744
185	0x3dcc5961	0.09977985
186	0x3dd43f4d	0.10363636
187	0xbc84c788	-0.016208425
188	0xbda311be	-0.079623684
189	0x3be755fa	0.0070598098
190	0x3cb7030e	0.022340324
191	0xbc5e914b	-0.013584445
192	0x3df29e4d	0.118466
193	0xbc8115e1	-0.015757503
194	0x3d895fd3	0.0670773
195	0xbcd969b1	-0.026539655
196	0xbc20b684	-0.00980914
197	0xbbb04fc0	-0.0053806007
198	0xbcd495a8	-0.025950268
199	0x3d08bcd7	0.033383217
200	0x3de39c54	0.111138016
201	0x3d9ba889	0.07600505
202	0xbd44603b	-0.047943335
203	0x3de18df6	0.11013405
204	0x3d48a116	0.04898175
205	0x3cbd425d	0.023102934
206	0x3c94e108	0.01817371
207	0xbd8e6737	-0.069532804
208	0xbdb3dd0b	-0.08782395
209	0xbc2446ec	-0.010026675
210	0xbda9ee79	-0.08297438
211	0x3d8ea5a9	0.06965191
212	0xbdec0b57	-0.115256004
213	0xbde1c691	-0.11024202
214	0xbd838426	-0.0642169
215	0x3d97724c	0.07394847
216	0x3dba5083	0.09097388
217	0xbdce6385	-0.100775756
218	0xbd9bf3c9	-0.07614858
219	0x3ca99017	0.02069859
220	0xb908bc1a	-0.00013040044
221	0xbdbdf82e	-0.09275852
222	0x3d770692	0.060309
223	0xbddbd00d	-0.10733042
224	0x3cd71404	0.026254661
225	0x3d2195bd	0.039449442
226	0x3de13a13	0.10997405
227	0xbdda7adc	-0.10667965
228	0x3d5627c5	0.05228402
229	0x3c29932d	0.010350031
230	0x3dcac71b	0.099012576
231	0x3e0429a6	0.12906513
232	0xbbdafd86	-0.0066830544
233	0xbc97e4b1	-0.018541666
234	0xbcba6758	-0.022754356
235	0x3dca69ed	0.09883485
236	0xbd601ec4	-0.05471684
237	0x3d9fc3ba	0.07801004
238	0x3db07ebe	0.08617924
239	0x3decec2e	0.11568485
240	0x3d94e4fb	0.07270237
241	0x3db7c5f0	0.089733005
242	0xbde5aec1	-0.11214972
243	0xbd1a1c6c	-0.03762476
244	0xbdb5a242	-0.08868839
245	0x3d7e3a1c	0.062067136
246	0x3c892819	0.016742753
247	0x3ce65ef4	0.028121449
248	0x3d87727e	0.066136345
249	0x3bad5dc0	0.005290717
250	0x3ce21555	0.027598063
251	0xbd9f0c2f	-0.07765996
252	0x3d9a8998	0.07545775
253	0xbdc0f364	-0.09421423
254	0xbe01136c	-0.12605065
255	0x3d01c02e	0.031677417

decoder.0.bias f4 [32]
0	0x3df17f58	0.11791867
1	0xbdd1ef8c	-0.10250768
2	0xbdc51c0c	-0.0962449
3	0x3cf72b6c	0.030172072
4	0x3d3e0bcf	0.04639798
5	0x3d5d6e5a	0.054060318
6	0x3dc91c79	0.09819884
7	0x3e066251	0.13123442
8	0x3d32f042	0.04368616
9	0xbe06dff3	-0.13171367
10	0x3cff71a7	0.031182123
11	0xbb37ef9b	-0.00280664
12	0xbd96c7ae	-0.07362305
13	0x3df27c71	0.118401416
14	0x3dd3a138	0.103334844
15	0x3c2cf03a	0.010555321
16	0xbd3cab09	-0.04606155
17	0xbda959c9	-0.08269078
18	0x3ce09f40	0.027419686
19	0xbcd8de05	-0.026473055
20	0x3d11b36e	0.035571508
21	0x3db8509b	0.08999749
22	0xbd4a9f05	-0.04946806
23	0x3d3be278	0.045870274
24	0x3d843eb9	0.06457276
25	0xbd9ec955	-0.07753245
26	0xbe05a0ee	-0.13049671
27	0x3d561505	0.05226614
28	0xbd426852	-0.04746277
29	0x3cf7a441	0.03022969
30	0xbd86e84e	-0.06587277
31	0x3d8ca795	0.06867901

decoder.3.weight f4 [32, 1, 2]
0	0xbdf2736e	-0.11838423
1	0xbe9eed7b	-0.31040558
2	0xbefae120	-0.48999882
3	0x3eeee31f	0.46657655
4	0xbee7bc86	-0.4526102
5	0x3da96b54	0.08272424
6	0x3f018676	0.50595796
7	0xbf25642c	-0.64605975
8	0xbf124bab	-0.5714671
9	0xbe4f443f	-0.20240878
10	0xbea0faab	-0.31441244
11	0xbef9655b	-0.4871014
12	0x3edfb929	0.43695953
13	0xbf3165e5	-0.69296104
14	0xbeb13dd2	-0.34617478
15	0xbf0e1045	-0.55493575
16	0x3e39f2bc	0.18159002
17	0x3dbd4063	0.092407964
18	0x3ec0f410	0.37686205
19	0x3ecb4845	0.39703575
20	0xbe25d9eb	-0.1619641
21	0xbe6b871a	-0.23000756
22	0x3f241b86	0.641045
23	0x3e110ae4	0.1416431
24	0xbe1b2f93	-0.15154867
25	0xbf0ffc6b	-0.56244534
26	0xbf2bb678	-0.670753
27	0xbed41831	-0.41424707
28	0xbed92c46	-0.4241659
29	0x3d2f9507	0.042866733
30	0xbea46b16	-0.3211295
31	0xbe371ee3	-0.17882876
32	0x3f25e8da	0.6480843
33	0xbe129171	-0.14313294
34	0x3e30e9c4	0.17276675
35	0x3b66b754	0.0035204487
36	0x3ef2bc16	0.47409123
37	0x3eba7d2c	0.36423624
38	0xbbbfd680	-0.005854428
39	0x3ec5c10d	0.3862385
40	0xbe0c308a	-0.13690391
41	0xbe2ddf0a	-0.16979614
42	0xbea47781	-0.32122424
43	0xbf0c20a8	-0.5473733
44	0x3f110be6	0.5665878
45	0xbef1bc60	-0.4721403
46	0xbf2112d8	-0.6291938
47	0xbec4d7d6	-0.3844592
48	0x3e0228dd	0.127109
49	0xbda9d427	-0.08292418
50	0x3eb138dd	0.34613696
51	0x3eeea2fd	0.46608725
52	0x3ed27160	0.41102123
53	0xbf188b36	-0.5958742
54	0x3e8fb449	0.28067234
55	0x3eac85d5	0.33695856
56	0xbebb211b	-0.36548695
57	0xbe338f19	-0.17535056
58	0x3dece5ad	0.11567245
59	0x3e080bbd	0.13285728
60	0x3ed3d65a	0.41374475
61	0x3f225b03	0.6342012
62	0x3f2a2599	0.6646362
63	0x3e6f1b28	0.23350203
