results/models/mc_dropout_tv_lambda_0.05.pth (torch, 46409 bytes, 7 tensors)

encoder.0.weight f4 [32, 1, 3]
00000000: e59c cf3e 9462 e43e f93f 2fbe 8ab2 0d3f
00000010: 9227 80bd 8cda 113e 1806 74be 561f b13e
00000020: caaf 053f 37c8 cebe e507 213f 49f7 923e
00000030: fe79 ef3e 770a 1d3e 36af a23e 81b1 09be
00000040: 5b2d cf3e ac6c 1a3d 06e7 9bbe ed5f 2e3e
00000050: ea6c 97be 3caa 8abd 9e1f 70be 3c18 c43e
00000060: 0cc0 3cbf 462c 0ebf c1fe 75be f7bc b1be
00000070: 2133 5f3d 0afb 11bf 1be4 153f b2e7 c7be
00000080: 417a 013f a20d 023d fab0 81be 1d71 d33e
00000090: 3922 4a3e 27da 053f dfb7 263e 6373 3abe
000000a0: fbd8 1e3e b652 20be 52c9 273e 309d de3e
000000b0: 1c93 823e afc9 a2be 3105 933e 9160 503d
000000c0: b15e b63e 8413 92be 4b2a ffbe 3e6b 64be
000000d0: 09bc e2be d58d f23e f6ed 863e 9f95 af3e
000000e0: a222 893e 9495 ef3d 4c27 cf3e 1bd4 2fbf
000000f0: d3f7 d83c e725 d3be 3e90 313e e299 4bbe
00000100: c527 353e 8358 f6bd cbcc 163f 4573 88be
00000110: 17b2 1cbf 2945 84be 3340 123f b5c1 8b3e
00000120: c328 1a3f 0901 dcbe e602 03bf d340 14bf
00000130: 1ceb afbe 1746 dd3e c85c 3b3e 4c33 dc3e
00000140: dcb5 9fbe 2b84 c9be 36d7 9c3e e8f7 6ebe
00000150: a5eb c83e adfd 3cbd 2cec bb3e a1ac e5be
00000160: 182d 95be b73e 343e 6281 333e 3423 70bd
00000170: 8912 cc3e 31f4 c83e 195d d6be 2fd0 9dbe
0.4054939 0.4460646 -0.17114247 0.55350554 -0.062575474 0.14243525 -0.2383045 0.3459422
0.5222136 -0.40387127 0.6290267 0.2870429 0.4677276 0.15336023 0.317743 -0.13446619
0.4046429 0.037701294 -0.30449694 0.1702878 -0.29575282 -0.06770751 -0.23449561 0.3829974
-0.7373054 -0.55536306 -0.24022962 -0.3471448 0.05449212 -0.5702368 0.58551186 -0.39043957
0.5057717 0.031751283 -0.25330335 0.41297236 0.19739617 0.52286 0.16281079 -0.18208079
0.15512459 -0.15656552 0.16385391 0.434793 0.2550286 -0.31794497 0.28714898 0.050873343
0.3561912 -0.28530514 -0.49836954 -0.22306535 -0.44284084 0.47373834 0.26353425 0.3429384
0.26784235 0.11698452 0.4045967 -0.6868302 0.02648536 -0.41239855 0.1734018 -0.1988292
0.17690952 -0.12028601 0.5890624 -0.26650444 -0.61209244 -0.25834015 0.5712921 0.27296224
0.6021845 -0.4296954 -0.511763 -0.57911414 -0.34359062 0.43217537 0.18297112 0.43007886
-0.31193435 -0.3935865 0.30632943 -0.23336756 0.39242283 -0.04614036 0.36703622 -0.44858268
-0.29135966 0.17602049 0.17529824 -0.058627322 0.3985789 0.39248803 -0.41867903 -0.30822894

encoder.0.bias f4 [32]
00000000: d9a9 063f 623c 47be d1e6 50be 0644 e3be
00000010: b246 98be 9651 f63d 2c83 62bd 0693 d6be
00000020: b9ba 253e d2eb c9be 1aed eabe 7f95 82be
00000030: 19e5 e7be ce38 bcbe 11b4 fe3e cf26 bd3d
00000040: 9376 743e 30da 09bf 97e7 8cbe 9eb8 2bbe
00000050: babb da3d c80d 02bf 6f0e 1abe 2501 99be
00000060: e6c2 873d ccac e9bd dbc9 cebd 424f c8be
00000070: 40d4 c1be 9d74 acbe 4356 19be 6650 e9be
0.52602917 -0.19456628 -0.2040055 -0.44387835 -0.29741436 0.1202728 -0.055300876 -0.41909045
0.1618451 -0.3943773 -0.4588402 -0.2550468 -0.45291975 -0.3676209 0.49746755 0.09235918
0.23873357 -0.5384855 -0.2752044 -0.16769645 0.10680337 -0.5080228 -0.15044568 -0.29883686
0.06628971 -0.114099115 -0.100970946 -0.3912297 -0.37857246 -0.3368272 -0.14974312 -0.45569152

encoder.4.weight f4 [64, 32, 3]
00000000: 630b 973d 34d4 40bc 98c4 993d f21d 0a3d
00000010: ac8b e5bd cdf4 773d 7022 a83b 7434 a7bd
00000020: 6dda ef3c 01e8 4dbd be10 5b3e b433 103e
00000030: 2464 773d a304 2bbe c7af f73d b956 86bd
00000040: 000e 17bc 62c2 463c 0fd1 613d 9e95 db3d
00000050: bbd7 b33d 34bd a5bd c86a d23c 03d0 33bd
00000060: 6ba7 183e d702 8e3c 6e58 8e3e a269 99bd
00000070: e46c 5f3d 03eb 123d 39a8 313c 24e5 79bd
00000080: 1f5d 783d 3207 083d 0283 653d 5635 b1bc
00000090: 0e39 553e ea9c 163e ecc8 0a3e 2a8a b33d
000000a0: e467 ba3c 8e4b 67bd 4ea7 45bd 6280 06bc
000000b0: 0376 3e3d 5277 19bd bfd0 2dbd 11d2 36bd
000000c0: 07f4 9cbd b12e 623d 52cb 0a3d 66c8 c4bd
000000d0: dd2e c23c 93f5 573d 8242 ca3d d24c 79bd
000000e0: 633b 263e a50a 2e3e e6dd 323e 2d4d 813e
000000f0: 73e3 31bd e9c9 3abb 13cb 5fbc 0d28 f9bc
00000100: e99b 853d 67a2 b33d 3452 eb3d db8d 8c3d
00000110: 15f7 733e 262a 9539 0723 463d d73b 6a3d
00000120: c064 e7bd d5a0 a6bc 20f3 953d bbbd 2d3e
00000130: 1754 063d 2fdf 073e ded9 31bd 09c4 9dbd
00000140: 1fe7 9fbd 0c2d 0d3d 1647 853d c702 413d
00000150: fb74 6cbb 0df1 cd3c 3b61 fc3d cc32 ca3d
00000160: e4e4 713c 0486 d8bc 5bd7 943d ae9d a4bd
00000170: 6ec9 613b 3690 983d 1d16 3ebd d79b a7bc
00000180: 26e5 55bd d141 c63d 0b70 d43d 9ee9 42bc
00000190: c715 0abd 409a c3bd 1e60 4fbd 2f89 843d
000001a0: 82b0 403c d929 173e 9bb4 babd 7af5 673d
000001b0: 2d6d 10bd e6a1 38bd eaae b2bd 9f5f 47bd
000001c0: 7ee4 9a3d 3b4b 2abc ee33 77bc 95ff a7bd
000001d0: 0e72 9dbc 261e 93bd 3994 88bd a4ab 0a3d
000001e0: fe2e 44be eace b9bd a521 3abe 2055 99bd
000001f0: ef84 93bc 98a5 4abd 4c5d ebbc f6a2 56bd
00000200: cd4a 833d b72c a4bd d8dc 26bc d2c0 3ebb
00000210: c078 2abd e153 09be c0da bfbc cea1 45bd
00000220: c41f 1b3d f44b c43d 1ff6 e03c a5f1 ff3c
00000230: e969 313c 9021 95bc baf2 a93d 47d6 49bd
00000240: 6b1b b73d 3b70 b43d 9e90 ec3d 9537 c5bc
00000250: ffbd abbd 9afa bb3c 0d32 69bd c424 00be
00000260: 9a4a c4bd 9cdd fbbd 76d7 fabd 6e16 5bbe
00000270: 9892 1c3d befb 8c3c 3d76 66bd 4b81 ab3d
00000280: 0a3b af3d 3428 83bc ccc7 12be f358 18be
00000290: 7dfc 70be 2102 bcbd a48e 623c da47 70bd
000002a0: 1569 23bd 8d71 9aba fd48 7cbc bc1f 4bbe
000002b0: 194d 27be 9dc2 21be 1b0d 56bd 75ad 85bc
000002c0: 48ed 17bd 7444 af3d f74b 27bd 208c dd3c
000002d0: a5db d6bd 9355 21bc e70c 163d 789a 403d
000002e0: ae23 b5bd 7aec 253d 82cb 923d 46bf d93c
000002f0: 3ada f43c c412 ce3d 161d 80bc e488 ad3c
00000300: ee9b 11bd d087 55ba ac29 c13d 7ba0 9b3c
00000310: ada9 f3bc 15c6 debd 28a4 1bbd b681 e9bd
00000320: 45c0 23be 29be 95bd 0523 cfbd 3358 94bd
00000330: 0f4d b6bd 7ef7 74bd d6db 8cbc 0186 2fbd
00000340: 73ff 143c ff04 913d ead1 21bd d5a5 3bbd
00000350: 9421 93bb 3ace c5bc 81f6 53bd cc54 babd
00000360: e2ca 89be 58ce 6cbe e38a fbbd 28ec 49bd
00000370: 695d 8cbd fba9 ca3c c4b8 103e b8ed 513e
00000380: 0e92 123e 8ff0 5d3d 15c2 dfbd 290e 1bbd
00000390: 681c 37bd 9b59 20bc f1be 02be 2445 c73d
000003a0: 675c 1cbd 2903 6ebd 30b6 45bd 5a3c c53c
000003b0: 9779 6b3d 3477 8d3d 85db 003d 17ed 53bd
000003c0: 390d b2bd eeed a4bb 1c99 d63d 082e 713d
000003d0: 9f66 73bd 5c10 59bc 3738 15be 468c afbd
000003e0: ba90 ffbd d0b1 723c 3387 6dbc b7d7 9ebe
000003f0: ec50 e83d 9962 53bd cea7 513d 85e2 b03d
0.07375219 -0.011769343 0.075082004 0.033719964 -0.11208281 0.060536195 0.0051310584 -0.081643015
0.029278958 -0.050270084 0.21393105 0.14082223 0.060398236 -0.16700988 0.12094074 -0.0655951
-0.009219646 0.012131305 0.055131014 0.107218966 0.08781382 -0.08092728 0.025685683 -0.043899547
0.14907615 0.017335339 0.27801841 -0.07490851 0.054547206 0.035868656 0.01084333 -0.06100954
0.060635682 0.033209987 0.056033142 -0.021631878 0.20822546 0.14708295 0.13553208 0.08766587
0.022754617 -0.05646854 -0.048255257 -0.00820932 0.046499263 -0.03746731 -0.042435404 -0.04463393
-0.07663732 0.05522031 0.033885308 -0.096085355 0.023703987 0.052724432 0.098759666 -0.060864277
0.16233592 0.16996248 0.1746746 0.25254193 -0.043429803 -0.0028501695 -0.0136592565 -0.030414606
0.06523878 0.0877121 0.114902884 0.06862994 0.23824723 0.00028450898 0.04837325 0.057185974
-0.112985134 -0.020340363 0.07321763 0.16966908 0.032795038 0.13268732 -0.043420665 -0.07703406
-0.07807755 0.03446679 0.06507699 0.04712179 -0.0036080468 0.025139356 0.12323233 0.0987297
0.014764044 -0.026431091 0.07267638 -0.080378875 0.0034452337 0.07449381 -0.046407808 -0.020460052
-0.052220486 0.09680522 0.10372933 -0.011896519 -0.033712175 -0.09550905 -0.050628774 0.06471478
0.011760833 0.14762057 -0.09116479 0.05663059 -0.03526037 -0.045076273 -0.087247685 -0.048675176
0.07563113 -0.010393913 -0.015088065 -0.08203045 -0.019219425 -0.07183485 -0.06668896 0.033855096
-0.19158551 -0.09072669 -0.18176897 -0.074869394 -0.018007724 -0.04947433 -0.02873101 -0.052401505
0.064107515 -0.08016341 -0.010184489 -0.002910663 -0.041619062 -0.13410904 -0.023419738 -0.048250012
0.03787209 0.095847994 0.02746111 0.031243155 0.010828474 -0.01820448 0.082982495 -0.049276616
0.089407764 0.08810469 0.11551021 -0.024074355 -0.08385848 0.022946645 -0.056932498 -0.12514025
-0.095845416 -0.12298128 -0.12248127 -0.21395275 0.03822574 0.017209884 -0.056265105 0.0837427
0.08556183 -0.016010381 -0.14334029 -0.14877681 -0.23533817 -0.091800936 0.0138279535 -0.058662273
-0.039895136 -0.0011783108 -0.015398261 -0.19836324 -0.16338004 -0.15796895 -0.052258592 -0.016318062
-0.037091523 0.08557978 -0.04084393 0.027044356 -0.104911126 -0.009847063 0.0366334 0.047022313
-0.08844696 0.040508725 0.07167722 0.026580464 0.029889215 0.10062173 -0.01563887 0.021183439
-0.035549097 -0.0008145543 0.094317764 0.018997421 -0.029743994 -0.10877625 -0.03799835 -0.114016935
-0.15991314 -0.07311661 -0.10114101 -0.07243385 -0.089014165 -0.05980634 -0.01719467 -0.042852405
0.009094107 0.07081031 -0.03950683 -0.045812447 -0.004490087 -0.024146188 -0.051748756 -0.09098205
-0.269126 -0.23125589 -0.1228235 -0.04929748 -0.06853754 0.024739256 0.14132982 0.20500839
0.14313528 0.054184493 -0.1092569 -0.0378553 -0.044704825 -0.009786989 -0.12768151 0.097299844
-0.03817406 -0.058108483 -0.04826945 0.02407663 0.057489004 0.06907502 0.03145935 -0.05173978
-0.08693928 -0.0050332462 0.10478422 0.05888179 -0.05942404 -0.013248529 -0.14572226 -0.08571677
-0.12478776 0.014812902 -0.014497566 -0.31023952 0.113435596 -0.051607702 0.05118542 0.08636955

encoder.4.bias f4 [64]
00000000: 0979 a8bd bea6 f33d a555 df3d d84c 773d
00000010: b7ce fd3c d114 c53c c90f d73c 6157 5bbd
00000020: 3ff8 cebd acc8 edbb 122b f43c 4cbe 9f3d
00000030: 8ce9 a53d 7546 683d 2af2 3f3d a298 be3b
00000040: 97f3 473d 0991 313d e1b8 7abd 7456 22bd
00000050: 07ed 97bd 8f19 c4bd 5917 873d 7a91 053e
00000060: 3e85 9f3d 24a8 433c b098 43bd 432a 9abd
00000070: 204e a9bc f6eb 08bd 4d99 56bb e526 4abd
00000080: 5f07 b23c 5415 dcbc 6bbe 07bd 2b98 c53d
00000090: f732 2ebd 37aa b33d fde5 b9bc 2458 8e3d
000000a0: da82 913c 4fb4 a23d b027 47bc 65c0 26bd
000000b0: a9d5 6fbd c972 c8bd 9eda b03d 82ce a53d
000000c0: bccb ae3b e8da c7bd 044e 9f3c cbb4 a5bb
000000d0: 1df9 9ebd 3921 9dbd 0ced 3c3d f7b4 40bd
000000e0: 06ee 2fbd d40d 7abd 4c40 863c d7c2 2fbd
000000f0: 8c56 09bd 95d0 1c3d b14b a73d 0490 0c3e
-0.082262106 0.11897038 0.10905007 0.06037602 0.030982358 0.024057778 0.026252644 -0.053550128
-0.10105943 -0.007256588 0.029805694 0.07799968 0.08101186 0.056707818 0.046861805 0.005816535
0.04881629 0.043351207 -0.06121147 -0.03963323 -0.07418256 -0.095751874 0.0659625 0.13043776
0.07789086 0.011941943 -0.047753036 -0.07527592 -0.020667136 -0.033428155 -0.0032745183 -0.0493535
0.02173203 -0.026865639 -0.03314058 0.09648164 -0.042529073 0.087727 -0.022692675 0.06950405
0.01776259 0.079445474 -0.012155458 -0.040710825 -0.05855337 -0.097875185 0.08635448 0.08096029
0.0053343456 -0.0975855 0.01944638 -0.0050569526 -0.07762358 -0.07672352 0.046124503 -0.04704758
-0.042951606 -0.061048344 0.016388081 -0.042910423 -0.033529803 0.038284857 0.08168734 0.13726813

decoder.0.weight f4 [64, 32, 2]
00000000: 359c 3b3c a76f 17be 3bd5 0e3d dcb0 e33d
00000010: 3736 c33c 660c c939 d0a9 b43c d2ff 953a
00000020: bc93 e4bc 513a a6bc 8ca5 fbbd c21c cfbd
00000030: 9339 02be 0300 48bd 09d7 74bc 09a6 dfbd
00000040: a12f 94bd 9d82 a4bc 8033 053e 5bb1 753d
00000050: b736 68bd 08ed e6bd c01d ecbc 0474 80b9
00000060: e5b7 1fbe 2f7c 4abe 4e33 02be 3d50 f5bd
00000070: a404 a5bd b558 4cbd eb40 d93d 6452 9abd
00000080: c8dd c83d a24d f73c 53b2 ddbd 7a4b 68bd
00000090: 83bd 0fbd 2ddb 5bbd e868 a73c 2c5a 583d
000000a0: 8ae2 34be c8ba 2ebe d4ba 01be 5ea2 5f3d
000000b0: 73d5 803d 1dfd 60bd 52aa b93c 45e1 81bd
000000c0: 27aa c03d 57a6 76bd 5b46 833d 5d02 473e
000000d0: b53c 0d3d 4a7b a73c 8d75 c6bc fdda 9dbc
000000e0: 9bed 393d 146b 6fbd 2bf0 863c 4314 df3d
000000f0: f6a2 dabc bfeb 1d3d ecfc 603c 2d53 a93d
00000100: a08d 983d c6b0 a53b e49b 8a3d 5d29 45bd
00000110: d16c 213c 1290 15bc 47c8 4e3d ae5d febc
00000120: 3a6c 14bd 5ef8 a53c cc1a 01bc 106e 07bd
00000130: 0c0a 623c 2758 a7bd f2f0 ebbc f60f 6bbd
00000140: 4ec4 cebd 1892 05be 618d 12be fb7e 5e3d
00000150: bc0a 26be 434c 073e aee2 33bd a61c 42be
00000160: 8b4e cc3d 330e d53d d5d9 82bc 0247 b03b
00000170: d540 ef3c 820e 0abc 2bc8 a4bd f161 4d3e
00000180: 40d9 adbd 2684 0ebc ed50 95bb 5000 bd3d
00000190: 982b ed3d af14 16be 1848 ecbd 9b6e 41be
000001a0: c891 383e ccf9 683e d388 6ebd 4f11 2a3d
000001b0: 4c83 7ebd 87cf 84bd bb0c 8e3d e82c a6bd
000001c0: 9c81 59bd 34eb cdbd 0995 4ebe c324 30bd
000001d0: 9ab7 aa3d 8b98 d1bd aaa8 123d aa42 b0bc
000001e0: a62d 043e 49fa f3bd f5e2 e3bb f41a f9bd
000001f0: 6f9a 093c 5505 1abe d78f 8dbd 6485 d93b
00000200: c5ed 183e 889e 1a3e 1102 7a3d 7b3e afbc
00000210: 4ee5 40bd 003f be3a 634d 843d 7c27 bf3d
00000220: 20e9 3c3d ec6b e33d f54a ae3d c87f e8bc
00000230: 1336 1d3c 4378 91bc cbc7 0dbb 59fd 87bd
00000240: c270 68bd b4fa 373d 89f3 063c bbca d0bd
00000250: 3828 6cbb cafd 503e 2cb4 81bd 9940 b1bd
00000260: 39ee 9d3d 348d 153e 6ffe d13d a05e d8bd
00000270: ea11 9abd 049c df3d 42a6 853c 364e 493e
00000280: 7d0c 7d3d fa4c 93bd a20d c13c f718 173d
00000290: f249 5abd 48d6 8c3d dfbf 89bd 768e bebd
000002a0: f1a7 4b3d d958 5e3e 6447 b2bd ca18 a53d
000002b0: d6fd 9bbd cdd3 31bd 754b 363d 5099 d53d
000002c0: 79f7 d9bd 2f5e 1cbe 4002 043d 9e7d 12be
000002d0: 316e 5abd 32fe 933d 6ecf 81bd 25a9 5e3d
000002e0: 3bbc 2f3d fc0b cf3d f217 ac3d 9762 7fbd
000002f0: 90b0 9bbd 4d6a 093b 6a68 133c 357f 86bc
00000300: bfcd f43d 8b4f 85bc 49dd 453d 90b1 e0bc
00000310: 2a1d 2ebc c04f b0bb 07d6 d5ba 465e 3a3d
00000320: e871 dc3d d388 873d 61a8 30bd 3ead ed3d
00000330: 4893 933d 4a34 0c3d a4d6 d43c efc6 79bd
00000340: a7f3 adbd 77b4 02bc 432e a2bd f988 1d3d
00000350: 3115 edbd 9a90 f1bd 7d5a 85bd 457d b53d
00000360: 0250 d03d f70a a9bd 357f 87bd 5239 153d
00000370: 047e 18bc 5980 c4bd 0dd6 3a3d 6a49 d9bd
00000380: c412 2b3d 06c7 253d 7a3c e03d dc7a dabd
00000390: f459 9d3d 8bc0 263c 5f94 e83d e96d 093e
000003a0: 45c4 c9bb 2577 6abc 9023 8cbc c6f6 db3d
000003b0: 8cb7 5dbd 3a3c a03d 4adb 8e3d 9bdf 023e
000003c0: f2aa 9c3d b863 bb3d 09f3 e4bd df3a 2fbd
000003d0: 42a2 b5bd 1c3a 7e3d 8e8e 893c feb3 1b3d
000003e0: 200f 803d 7062 f13b ba81 213d c7d6 95bd
000003f0: f0fa 973d 96e2 bbbd cf78 f9bd 0387 023d
0.011450817 -0.14788686 0.03487132 0.111177176 0.023829563 0.00038346945 0.02205363 0.0011444038
-0.027902476 -0.02029148 -0.12287435 -0.10112907 -0.12717275 -0.048828136 -0.0149438465 -0.109203406
-0.07235647 -0.020081813 0.13007927 0.059983592 -0.056692805 -0.11275679 -0.02882278 -0.000245005
-0.15597494 -0.19773935 -0.12714884 -0.11978195 -0.08057526 -0.049889285 0.10608085 -0.07535246
0.098079264 0.030188385 -0.10825028 -0.056712605 -0.03509284 -0.05367582 0.020435765 0.05282037
-0.17664543 -0.17063439 -0.12668926 0.054598205 0.06290712 -0.054928888 0.022664223 -0.06341795
0.09407454 -0.060217228 0.064099036 0.19434495 0.034481723 0.020444531 -0.024225974 -0.01926946
0.045392614 -0.058451727 0.016471943 0.108925365 -0.026689034 0.038554903 0.013732176 0.08267818
0.07448888 0.0050564734 0.06768015 -0.04813515 0.009852604 -0.009128587 0.050483968 -0.03105053
-0.036236025 0.020260032 -0.007879924 -0.03306395 0.013796341 -0.081711106 -0.028801415 -0.05738827
-0.10096036 -0.13044012 -0.14311744 0.054320317 -0.16215032 0.13212685 -0.04391735 -0.18956241
0.099759184 0.10403099 -0.015973011 0.0053795585 0.029205719 -0.0084263105 -0.080459915 0.20056893
-0.08488703 -0.008698499 -0.0045567662 0.09228575 0.115805805 -0.14656328 -0.11537188 -0.18889849
0.18024361 0.2275154 -0.058235954 0.041520413 -0.062136933 -0.06484895 0.06936022 -0.08114034
-0.05310212 -0.10054627 -0.2017404 -0.04300381 0.083358005 -0.102341734 0.03580538 -0.021516163
0.12908038 -0.119129725 -0.0069545456 -0.12163344 0.008398636 -0.15041097 -0.06912201 0.006638216
0.14934452 0.15099537 0.061037127 -0.021392098 -0.047093682 0.0014514625 0.06460073 0.09333703
0.046120763 0.11104569 0.08510391 -0.028381243 0.009595412 -0.01775754 -0.0021633978 -0.06640119
-0.05674816 0.044916824 0.008236774 -0.10194918 -0.0036034714 0.20409313 -0.06333193 -0.08654899
0.07711453 0.14604646 0.102536075 -0.10564923 -0.07522948 0.109184295 0.01631463 0.19658741
0.061779488 -0.071924165 0.023566071 0.036889043 -0.053293176 0.068768084 -0.0672605 -0.09304516
0.04972071 0.2171358 -0.08705023 0.08061369 -0.07616775 -0.04341488 0.044505555 0.10429633
-0.10642905 -0.15270303 0.03222871 -0.14305732 -0.053327743 0.07226218 -0.06338392 0.054360528
0.04290412 0.10109708 0.08403005 -0.062349882 -0.07602036 0.0020967901 0.008997062 -0.016418079
0.119533055 -0.01627328 0.048306737 -0.027428418 -0.01062707 -0.0053806007 -0.0016314395 0.045500062
0.107639134 0.06617894 -0.04312933 0.11605309 0.07205826 0.034229554 0.025981255 -0.060980733
-0.084937386 -0.0079775965 -0.0791898 0.038460705 -0.115763076 -0.11795159 -0.065114 0.08861784
0.1017151 -0.082540445 -0.0661606 0.036431618 -0.009307388 -0.09594793 0.04561429 -0.10609706
0.041765943 0.040473007 0.10949035 -0.10667965 0.07683173 0.010177742 0.113564245 0.13420834
-0.0061574304 -0.014310633 -0.017106801 0.10740428 -0.054130122 0.07823987 0.0697542 0.12780611
0.07649793 0.09149879 -0.11179168 -0.042780753 -0.08868839 0.062067136 0.016791608 0.03801345
0.06252885 0.007366471 0.039430358 -0.07316356 0.074209094 -0.09174077 -0.121812455 0.03186704

decoder.0.bias f4 [32]
00000000: 6fc8 e63d 1d76 cfbd 6a14 d6bd 7628 fe3c
00000010: eca2 393d a3e0 773d cd91 cc3d f592 083e
00000020: e3c8 2b3d 5519 06be 3db5 d63c c85e f7ba
00000030: d843 b5bd 5467 ef3d 244d b93d 6361 1bbd
00000040: fb0c 38bd 597b b0bd bafe dd3c ab9a 23bb
00000050: 3e3b 2d3d 6c5e c23d cd71 54bd 1b9f 2d3d
00000060: 9307 803d 1c2d a8bd f57f 0bbe a3aa 5c3d
00000070: 45e9 3dbd f9a7 e93c 9f92 84bd 3051 893d
0.112686984 -0.1012995 -0.104531124 0.031025153 0.04532139 0.060516965 0.09988747 0.1333731
0.041939627 -0.13095601 0.026209468 -0.0018872852 -0.08850831 0.1168963 0.090479165 -0.037934672
-0.044934254 -0.08617277 0.027099002 -0.0024964015 0.042292826 0.09490666 -0.05186634 0.042388063
0.06251445 -0.08211729 -0.1362303 0.05387367 -0.04636504 0.028522478 -0.06473278 0.067049384

decoder.3.weight f4 [32, 1, 2]
00000000: d98b 31be 382c 57be 66cb fabe 84ab f13e
00000010: af67 e6be 955c fe3d 8d55 053f 9b9c 12bf
00000020: bc5c c8be b694 a6be 526e b5be f219 dabe
00000030: aeb3 e53e fbc9 29bf fea8 bebe d445 02bf
00000040: 889d 343e dc47 f23d 9888 bf3e 9e22 ca3e
00000050: 3d85 49be 0132 44be dc17 1c3f af9f 5d3e
00000060: 69cf 39be 37bb 09bf 5641 25bf 5f0f eebe
00000070: b6dd cabe 3ebf 973d b5ca 77be 720c 60be
00000080: d82e 253f 87f1 2dbe d156 2f3e 65fb a23b
00000090: 8db1 eb3e 96af bf3e 7a78 72bc f6df c33e
000000a0: 0536 1bbe f916 1abe a630 b9be 14d9 ebbe
000000b0: 2751 113f 97bf eabe a50d 16bf 7bd3 eabe
000000c0: 5b0a 003e f09c 7dbd f810 b53e 6637 ed3e
000000d0: 748e d73e 77bb 14bf 1758 8e3e fce6 ac3e
000000e0: 40a4 9abe 51b7 84be 4799 153e 6ee2 333e
000000f0: 0228 dd3e 4af6 1b3f a678 283f 30f4 ab3e
-0.17338504 -0.21012962 -0.48983306 0.4720117 -0.4500098 0.12420002 0.52083665 -0.5727021
-0.3913325 -0.32535332 -0.3543573 -0.4259792 0.44863647 -0.6632382 -0.37238306 -0.508878
0.17638218 0.11830112 0.374089 0.39479536 -0.19679733 -0.191597 0.60973907 0.21642946
-0.18145527 -0.5380129 -0.6455282 -0.46496102 -0.39622277 0.074095234 -0.2419842 -0.21879748
0.645246 -0.16986667 0.17122962 0.004973816 0.46033898 0.3743865 -0.014799232 0.38256806
-0.15157326 -0.15047826 -0.36169928 -0.46064055 0.56764454 -0.45849296 -0.5861457 -0.45864472
0.1250395 -0.061917245 0.3536451 0.46331328 0.4210087 -0.5809855 0.27801582 0.33769977
-0.30203438 -0.2592111 0.14609252 0.17566845 0.43194586 0.6092268 0.65809095 0.33584738
