results/models/mc_dropout_tv_lambda_0.001.pth (torch, 46423 bytes, 7 tensors)

encoder.0.weight f4 [32, 1, 3]
00000000: c8ce ce3e 097c e33e 8366 30be 5320 0d3f
00000010: e838 84bd f4f4 0e3e 7ac5 74be 5272 b13e
00000020: 5cb5 053f 3e6b d9be 5843 213f 92ff 903e
00000030: 418a ee3e 7c6b 1a3e 6800 a23e 18a5 09be
00000040: 8584 cf3e f8ed 193d 7d04 98be 86c5 2a3e
00000050: 6c27 94be 3caa 8abd 9e1f 70be 3c18 c43e
00000060: d24d 3cbf 5a53 0dbf f8be 6abe f7bc b1be
00000070: 2133 5f3d 0afb 11bf 34c9 153f 9a2a c9be
00000080: ea03 013f 6007 d13c bd47 85be dfd5 d53e
00000090: ed51 493e c082 053f 2e4a 263e 6373 3abe
000000a0: fbd8 1e3e b652 20be fdb6 253e f9f3 dc3e
000000b0: a207 813e abb2 a6be 0569 923e 65d8 473d
000000c0: 3dd9 b43e af14 94be 7cab 00bf 3e6b 64be
000000d0: 09bc e2be d58d f23e 4695 873e 1439 b13e
000000e0: 001d 8b3e d0ea e03d 3dc8 d03e bd39 2dbf
000000f0: 5410 e03c 8f9d d3be 9536 303e e299 4bbe
00000100: c527 353e 8358 f6bd 7f6f 153f 4ec9 98be
00000110: 9202 12bf 7ecb 84be dc1f 123f 3e84 8b3e
00000120: f399 153f c6fa e3be bfc9 09bf f5ec 0cbf
00000130: 1f76 c4be 5e63 d93e daa6 303e d424 d93e
00000140: a022 a1be 2b84 c9be 36d7 9c3e e8f7 6ebe
00000150: b991 c53e e7e8 42bd 86a9 b83e a1ac e5be
00000160: 182d 95be b73e 343e 786e 2f3e 672a 7dbd
00000170: 5aa7 ca3e 31f4 c83e 195d d6be 2fd0 9dbe
0.40392137 0.4443057 -0.17226605 0.5512745 -0.064561665 0.1396063 -0.23903456 0.34657532
0.5222986 -0.42464632 0.62993383 0.28319985 0.46589854 0.15080065 0.31640935 -0.13441885
0.40530792 0.03758046 -0.29690924 0.16676912 -0.28936327 -0.06770751 -0.23449561 0.3829974
-0.73556244 -0.5520531 -0.22924411 -0.3471448 0.05449212 -0.5702368 0.58510137 -0.39290315
0.503966 0.025516212 -0.26031294 0.41764733 0.19660158 0.52152634 0.16239235 -0.18208079
0.15512459 -0.15656552 0.16183086 0.43154886 0.25201136 -0.32558188 0.2859575 0.048790354
0.3532199 -0.2892203 -0.50261664 -0.22306535 -0.44284084 0.47373834 0.26481074 0.3461386
0.27170563 0.10982287 0.4077777 -0.67666227 0.027351536 -0.41331145 0.17208321 -0.1988292
0.17690952 -0.12028601 0.58373255 -0.29841083 -0.5703517 -0.25936502 0.57079864 0.2724933
0.5843803 -0.44527262 -0.53823465 -0.5504907 -0.3837137 0.42458624 0.17251149 0.4241091
-0.3147173 -0.3935865 0.30632943 -0.23336756 0.3858774 -0.047585394 0.36066836 -0.44858268
-0.29135966 0.17602049 0.17131984 -0.061808016 0.39580804 0.39248803 -0.41867903 -0.30822894

encoder.0.bias f4 [32]
00000000: bc99 063f efef 49be a1d9 51be 3e80 dfbe
00000010: c795 97be c6b0 013e dd4e 68bd 0693 d6be
00000020: 15e0 203e d2eb c9be 621f ecbe 003f 7fbe
00000030: c427 e9be ce38 bcbe 8ba5 fe3e 1462 c63d
00000040: 9eee 703e 30da 09bf c0bb 8abe 37d4 2fbe
00000050: 4d8a d83d c80d 02bf 3ac2 21be 578f 97be
00000060: ef0c 323d 9312 e8bd c3d3 d3bd 424f c8be
00000070: a345 c7be 9d74 acbe b711 17be 6650 e9be
0.5257833 -0.19720434 -0.20493175 -0.4365253 -0.2960646 0.1266509 -0.056715835 -0.41909045
0.1571048 -0.3943773 -0.46117693 -0.24926376 -0.4553815 -0.3676209 0.49735674 0.09686676
0.23528525 -0.5384855 -0.27096367 -0.17170797 0.10573254 -0.5080228 -0.15796748 -0.29601547
0.043469366 -0.11331668 -0.10343125 -0.3912297 -0.38920316 -0.3368272 -0.14752851 -0.45569152

encoder.4.weight f4 [64, 32, 3]
00000000: 4c3e 9c3d 1951 72bc 7db6 9f3d 9396 883c
00000010: 791b f3bd 8da9 6c3d 5a1c 353b 6aaf 90bd
00000020: f843 4f3b 8665 b2bd d1ac 113e b9fd fb3d
00000030: 431d 9d3d 84e0 18be 9893 093e f7a2 8fbd
00000040: 64e0 45bc 7ab6 813c 4bd0 623d 8cbe cb3d
00000050: d460 aa3d 34bd a5bd c86a d23c 03d0 33bd
00000060: 1d07 053e 6da1 01bb daa6 6c3e a269 99bd
00000070: e46c 5f3d 03eb 123d 7f36 aabd eba8 d5bd
00000080: 5b7a 8d3d 1dee 0c3d f401 263d 8acc b7bc
00000090: 3926 083e 1715 003e a7a8 173e 2a8a b33d
000000a0: e467 ba3c 8e4b 67bd 6fa7 48bd 540f f8bb
000000b0: 7145 4b3d 523f 02bd c53c 3fbd 2640 19bd
000000c0: 88e7 bbbd b36f 423d 3495 093d 66c8 c4bd
000000d0: dd2e c23c 93f5 573d 1853 b03d 183a 44bd
000000e0: febc 213e df9a ef3d cc92 1c3e 4345 693e
000000f0: 8296 3dbd 5c12 3bbb 0c34 63bc 0d28 f9bc
00000100: e99b 853d 67a2 b33d 8720 543d 403d 0c3d
00000110: 474e 633e 4890 623b 238d 7a3d 2044 d93d
00000120: b30d 0fbe 95cb 10bd 90bb e73d 433e 233e
00000130: eb8f 413d d5be 0e3e 4df1 5cbd deee acbd
00000140: 0ea2 83bd 0c2d 0d3d 1647 853d c702 413d
00000150: 808b babd 5501 803c 2fe8 173e cc32 ca3d
00000160: e4e4 713c 0486 d8bc 8589 a63d c540 81bd
00000170: c124 9c3c 3690 983d 1d16 3ebd d79b a7bc
00000180: f22c 6dbd 536d c63d 060b d53d 2428 543b
00000190: 5a74 dbbc 08f5 babd 07ff 44bd b4ec 893d
000001a0: 5d18 923c a2a9 ec3d a1a0 d6bd 533c 283d
000001b0: 1280 d9bc 2bde 3bbd 9a95 b4bd 69e2 4fbd
000001c0: 6fad 973d ac80 48bc 6f9b abbc 01d3 9dbd
000001d0: bcac dcbc 261e 93bd 3994 88bd a4ab 0a3d
000001e0: 559d 47be 59e4 cdbd fee7 45be 2055 99bd
000001f0: ef84 93bc 98a5 4abd dac1 76bc d367 4bbd
00000200: c771 933d 525a a9bd a231 1cbc 78e1 07bc
00000210: f619 82bd 74f1 19be d27b b1bc cea1 45bd
00000220: c41f 1b3d f44b c43d edf5 db3c 3e58 fd3c
00000230: e08a fa3b 4428 b7bc ae0e a03d b560 60bd
00000240: 3579 a13d 3910 b23d 8699 ee3d 9537 c5bc
00000250: ffbd abbd 9afa bb3c 0c97 2dbd 1128 f2bd
00000260: 8535 b5bd 6626 06be 4795 e2bd d129 4fbe
00000270: 134a 0f3d fc01 453c 3841 81bd 4b81 ab3d
00000280: 0a3b af3d 3428 83bc 7237 1ebe 701f 0ebe
00000290: 3a5e 6ebe 1f88 b9bd 6cfd 373c fd8f 69bd
000002a0: cd81 4ebd 2c84 51bc d239 f3bc 5dba 36be
000002b0: 758e 27be 16df 30be 2acb 48bd 39e7 73bc
000002c0: 1f61 1cbd 7444 af3d f74b 27bd 208c dd3c
000002d0: 4ebb e6bd 7932 d9bc d460 1b3d 789a 403d
000002e0: ae23 b5bd 7aec 253d fde1 a13d 8489 e63c
000002f0: 26dc d43c c412 ce3d 161d 80bc e488 ad3c
00000300: 74e7 38bd 80a1 ddbb 7c43 b33d 5179 18bb
00000310: fcc6 55bd a09a 00be 8cce 70bd b460 0fbe
00000320: 69a7 36be d8c8 f7bd 12d9 0cbe 6122 bfbd
00000330: ac40 f5bd 8518 babd 5220 0abd 2d28 3bbd
00000340: 6071 273b a1ae 803d 108d 35bd 2034 3bbd
00000350: 5395 46bc 3ace c5bc 81f6 53bd cc54 babd
00000360: eaea 8bbe 34da 75be 0ab1 f1bd 28ec 49bd
00000370: 695d 8cbd fba9 ca3c 619f eb3d 1906 1d3e
00000380: f43e ea3d f6d5 5f3d 2c12 cfbd 3349 20bd
00000390: 7f23 4a3a bc46 16bd 540f 09be 2445 c73d
000003a0: 675c 1cbd 2903 6ebd 342e 5cbd 59ee 963c
000003b0: 1d63 503d 71ce 823d 90c6 dd3c 89f5 7cbd
000003c0: cbee c0bd 9c4b 48bc ffb7 ca3d 082e 713d
000003d0: 9f66 73bd 5c10 59bc 152d 33be 2d20 fcbd
000003e0: 64ae 05be 7bf1 d3bc ca11 88bc 7f91 98be
000003f0: 5347 de3d 908f 6ebd dfd0 2c3d 85e2 b03d
0.0762907 -0.014789843 0.07798479 0.016673362 -0.11870474 0.057778884 0.0027635307 -0.070647076
0.0031626206 -0.0871077 0.1422608 0.12304253 0.07671597 -0.14929396 0.13435209 -0.07013505
-0.012077425 0.015834082 0.055374425 0.09948453 0.0831925 -0.08092728 0.025685683 -0.043899547
0.12990995 -0.0019780055 0.23110524 -0.07490851 0.054547206 0.035868656 -0.083111756 -0.10432609
0.06908103 0.03440677 0.040529206 -0.022436399 0.13295831 0.12508045 0.1481043 0.08766587
0.022754617 -0.05646854 -0.048987802 -0.0075701866 0.04962677 -0.03179867 -0.046688814 -0.037414692
-0.091750205 0.047469806 0.033589557 -0.096085355 0.023703987 0.052724432 0.08609599 -0.047906965
0.15794751 0.11699461 0.15290374 0.22780327 -0.046286114 -0.0028544879 -0.013867389 -0.030414606
0.06523878 0.0877121 0.051788833 0.0342381 0.22197829 0.0034570862 0.061169755 0.10608697
-0.1397007 -0.0353504 0.113150716 0.1594172 0.04725639 0.13939984 -0.05394106 -0.08443998
-0.06427394 0.03446679 0.06507699 0.04712179 -0.09108639 0.015625635 0.14834665 0.0987297
0.014764044 -0.026431091 0.081316985 -0.06311182 0.019060494 0.07449381 -0.046407808 -0.020460052
-0.05790419 0.09688821 0.10402493 0.0032372558 -0.02678888 -0.09128767 -0.048094776 0.06734601
0.017833883 0.115557924 -0.10479856 0.041073155 -0.026550326 -0.045866173 -0.08817597 -0.05075303
0.07406127 -0.012237709 -0.02094814 -0.077062614 -0.026937835 -0.07183485 -0.06668896 0.033855096
-0.19493611 -0.100533195 -0.19326779 -0.074869394 -0.018007724 -0.04947433 -0.015060866 -0.04965956
0.07199436 -0.0826918 -0.009533318 -0.008293502 -0.06352608 -0.15033513 -0.021665487 -0.048250012
0.03787209 0.095847994 0.026850665 0.030925866 0.0076459497 -0.022358067 0.078153 -0.054779727
0.078844465 0.086945005 0.11650376 -0.024074355 -0.08385848 0.022946645 -0.042380378 -0.11824048
-0.08848099 -0.13100585 -0.11063629 -0.20230795 0.034982752 0.012024399 -0.063112676 0.0837427
0.08556183 -0.016010381 -0.15450838 -0.1387918 -0.23278132 -0.09059166 0.011229854 -0.057022084
-0.050416756 -0.01278786 -0.029690657 -0.1784453 -0.16362937 -0.172726 -0.049021877 -0.014886671
-0.03817856 0.08557978 -0.04084393 0.027044356 -0.11266194 -0.026513325 0.03793414 0.047022313
-0.08844696 0.040508725 0.07904432 0.028141744 0.025983881 0.10062173 -0.01563887 0.021183439
-0.045142606 -0.006763637 0.08753106 -0.002326567 -0.05219172 -0.12558985 -0.05879073 -0.14001733
-0.178373 -0.12098855 -0.13754681 -0.09332729 -0.11975226 -0.09086708 -0.03372223 -0.04569261
0.0025549755 0.06283308 -0.04432398 -0.045704007 -0.012120563 -0.024146188 -0.051748756 -0.09098205
-0.27327663 -0.24009019 -0.11801346 -0.04929748 -0.06853754 0.024739256 0.115050085 0.15334357
0.114377886 0.05464741 -0.10110888 -0.03913231 0.0007710978 -0.03668855 -0.13384753 0.097299844
-0.03817406 -0.058108483 -0.053755 0.0184242 0.05087577 0.06387032 0.027072221 -0.061757598
-0.09420546 -0.012225058 0.09898376 0.05888179 -0.05942404 -0.013248529 -0.17497666 -0.123108245
-0.13054806 -0.025871983 -0.016610045 -0.29798505 0.10853448 -0.05824238 0.042191382 0.08636955

encoder.4.bias f4 [64]
00000000: afa5 a3bd 956d f03d bade cf3d 01e6 7a3d
00000010: 9faa 083d 96b2 043d 7120 e03c 1108 48bd
00000020: 3ff8 cebd 6574 f4bb ef4f f13c a487 a03d
00000030: c325 ae3d a4b5 6b3d d195 333d 679f 143c
00000040: 584d 353d d17b 253d e9b5 3abd 7456 22bd
00000050: a599 38bd c3f0 c6bd edc5 8d3d 0660 b33d
00000060: 54b9 ac3d ae4d 683c b947 3fbd ec06 8fbd
00000070: 6923 98bc 0adc 1c3d 4c7f c3ba ae81 46bd
00000080: 8858 cd3c 3ad9 e9bc fb95 d7bc 9c67 c63d
00000090: f732 2ebd 35fe b43d f2d0 c5bc 3e4e 923d
000000a0: fd0e 913c c3e1 ab3d 33a0 0dbc 0a1f 2abd
000000b0: 7dfb 43bd c972 c8bd 74bb b63d 601b ad3d
000000c0: d662 34bb a9e5 b2bd 7845 ac3c 58a1 02bb
000000d0: ffa4 d1bd a7ae 9abd 628c 423d 6997 41bd
000000e0: 4e9a 30bd 43fd 79bd 4a56 983c 57e2 47bd
000000f0: 583c 06bd e669 1d3d 6a1a a83d a9ae 0e3e
-0.07990586 0.11739651 0.101499036 0.061254505 0.033365842 0.032396875 0.02735922 -0.048835818
-0.10105943 -0.0074601644 0.02945706 0.078383714 0.08503296 0.057546273 0.043844048 0.009071208
0.044263214 0.040401284 -0.04558364 -0.03963323 -0.0450684 -0.097138904 0.06922517 0.087585494
0.08433786 0.0141786765 -0.04669926 -0.06983742 -0.018571572 0.038295783 -0.0014915257 -0.048463516
0.025066629 -0.028545965 -0.026316633 0.09687731 -0.042529073 0.08837549 -0.024147484 0.0714383
0.017707342 0.0839267 -0.0086441515 -0.041533507 -0.04784726 -0.097875185 0.089224726 0.08452487
-0.002752473 -0.087352104 0.021029219 -0.0019932594 -0.10236549 -0.075528435 0.04749716 -0.047263537
-0.043115906 -0.061032545 0.018595833 -0.04879984 -0.032772392 0.03843107 0.08208163 0.13933815

decoder.0.weight f4 [64, 32, 2]
00000000: 4f2a 633c b3f5 eebd 4cc6 f9bc 3381 db3d
00000010: 4c92 bb3c 8ef4 d73c a987 3f3d c78a ffbb
00000020: c01b febc b19a acbd cbf9 e1bd 6f65 91bd
00000030: 451a 0bbe ddfd 42bd 96f3 1abb 9894 8cbd
00000040: 16db cdbd 1062 47bd 1672 d33d c3b8 003e
00000050: b411 afbd e86d f7bd 2bf7 20bd 8aab a7bb
00000060: 1dc8 6dbd 1c6a 3cbe 01f9 f8bd 659f f0bd
00000070: ca5e b3bd 689c 8a3c de37 d63d a37e b7bd
00000080: 3980 833d d2ab f83c 18e5 dbbd 57bf 8ebc
00000090: 08a8 40bd 012b a7bd c123 a13c 6b6f ac3d
000000a0: cc5d 22be 2bf0 06be b013 efbd 268d ea3d
000000b0: d1f6 893d 44f6 4fbd 0a87 833d 620d 8fbd
000000c0: 4e19 b83d 9b38 b3bd 9897 0f3d ad6e 5a3e
000000d0: 21f2 2d3d 8025 f83c d00d c5bc 0ec4 403c
000000e0: fea0 783d ef8f 81bd f2ae 61bc f3d4 8a3d
000000f0: c684 7abd 9a2a ab3c 1cf3 9cbb 6e62 aa3d
00000100: 5873 3f3d 780b 9fbb 31a2 d93d 77cd 80bd
00000110: d9dd ef3c a42c 8a3b 3ff8 193d 5703 7dbc
00000120: 9367 01bd 87e8 563c 901c febb f741 28bd
00000130: 97af 483d 195a 94bd a86c b2bc 5db0 89bd
00000140: 1044 d4bd 3a0f f8bd 23d9 0ebe 6f00 943c
00000150: a111 15be 1ad0 f03d 858a abbd 4f97 31be
00000160: c293 c73d 5a4b f93d 2cdc 27bb 0b96 683c
00000170: b8aa b53d 0e1f 533c 07c1 3cbd 082a 443e
00000180: f532 94bd 5711 f8bb e2fe 8ebb 4970 8a3d
00000190: af48 ef3d d91b 21be 004a f0bd a5ec 45be
000001a0: aef5 253e 161f 623e 6a5f 7bbd 0dae 383d
000001b0: 2051 52bd 3a5a 6ebd 4fa8 ba3d fdfd a0bd
000001c0: 8f7f 3dbd e5b0 d5bd 60b8 48be c642 d7bc
000001d0: 9ab7 aa3d 0e5b cbbd 807a 123d 52d3 65bd
000001e0: 381a 023e dad4 f4bd fb9e 073d ea7a e0bd
000001f0: a9ab 5a3a d6d0 1cbe b03d 20bd 4c7c 5d3c
00000200: b6a7 0c3e ec6e fd3d d599 c43d c7fa 1ebd
00000210: 096f 3abd 003f be3a 07a4 fa3c 9995 c03d
00000220: 4a45 353b 86d4 f53d a7c4 c63d 13e0 84bc
00000230: e526 533d 46ed 60bc af90 d43c 091c 85bd
00000240: 0f22 95bd 175b 843d 368a 5d3c 37ea 05be
00000250: 3f5d ce3b b95b 373e 6631 8bbd b045 a3bd
00000260: 59a6 c03d fddd 313e ff73 013e 604b 96bd
00000270: 2d6e 34bd f598 1f3e 7773 e63d d2fd 3c3e
00000280: 372e 823d eca9 a2bd f2c7 de3c 53ff 733d
00000290: 1500 45bd bf36 903d 2a2c 29bd b279 dbbd
000002a0: e006 253c 76eb 483e c182 a1bd f610 d63d
000002b0: 413c 93bd 9a2a 54bd 87ff 693d d58d 103e
000002c0: 698a eabd 9eac 16be fa26 043d 4094 f1bd
000002d0: 85d5 50bd 32fe 933d 5dff 81bd 8d5d 863d
000002e0: acb5 ae3c 3c9e cf3d f089 d33d 2a29 6ebc
000002f0: e6d2 9fbd 56b3 f43b 62d7 973c 998a 59bc
00000300: 173d f23d 9367 ffbb 2e3e 763d 49d8 d8bc
00000310: d511 4cbc c04f b0bb 95f9 ffba b088 383d
00000320: fe40 cb3d 0978 b23d edfc 2cbd 9c97 fc3d
00000330: b21c 8d3d 47e1 053d 1e29 bf3c 4c05 71bd
00000340: 4b59 acbd 1a56 f3bb a794 9bbd 677a 9a3d
00000350: 7817 e8bd 510b c4bd a056 81bd ba20 b03d
00000360: e0be ab3d b29f a8bd 6bc6 8dbd 06a4 1c3d
00000370: 5787 e0bb 9402 c3bd 65ea 113d e7d1 b5bd
00000380: 6c57 163d 4a01 243d e633 e13d cae0 d8bd
00000390: 74c4 933d 9862 453c 8646 d33d 5c44 033e
000003a0: 153e 8cbc a40c a2bb 8088 96bc 22ed e33d
000003b0: 9c23 5fbd 8358 a33d ad14 923d d5e1 043e
000003c0: 30f1 9b3d a5ba bb3d 2707 e4bd d7ea 0bbd
000003d0: 42a2 b5bd 1c3a 7e3d 1c0a 893c 0287 1b3d
000003e0: 4038 813d c05d ad3b e854 1c3d 1f96 99bd
000003f0: 1d8c 9a3d 779c b8bd 5116 f7bd 95ce 023d
0.013865068 -0.11667957 -0.030490063 0.10718002 0.022896908 0.02636173 0.046760235 -0.007798526
-0.031019092 -0.084279425 -0.11033972 -0.07099425 -0.1358424 -0.047605384 -0.0023643724 -0.068642795
-0.10051553 -0.048677504 0.103244945 0.12570481 -0.085482985 -0.1208151 -0.039298218 -0.0051168846
-0.05805217 -0.18399853 -0.12156869 -0.11749152 -0.08758314 0.016920283 0.104598746 -0.08959701
0.06420941 0.030355368 -0.107370555 -0.017425222 -0.047035247 -0.08162499 0.01967037 0.08419689
-0.15856093 -0.13177554 -0.11673677 0.11452703 0.067365296 -0.050771967 0.06422241 -0.069849744
0.089892015 -0.08751031 0.03505668 0.21331282 0.04246724 0.030291319 -0.024054438 0.011765493
0.06070041 -0.06326281 -0.01377462 0.06778898 -0.06116178 0.020894337 -0.004789723 0.08319555
0.04674086 -0.004853662 0.10626639 -0.06289189 0.02928059 0.0042167474 0.03759026 -0.015442691
-0.031592917 0.013116962 -0.0077548698 -0.041078534 0.04899558 -0.07243747 -0.021780327 -0.06723092
-0.103645444 -0.12112279 -0.13950019 0.018066613 -0.14557506 0.11758442 -0.0837603 -0.17342876
0.097449794 0.12172575 -0.002561341 0.014195929 0.08870453 0.012885822 -0.046082523 0.19156659
-0.07236282 -0.0075704264 -0.0043638805 0.06759698 0.11683785 -0.1573328 -0.117328644 -0.19328554
0.16207 0.22082171 -0.06137029 0.045087863 -0.051346898 -0.058191516 0.091141336 -0.078609444
-0.046264227 -0.104341306 -0.19601583 -0.026276957 0.083358005 -0.09929477 0.035761356 -0.056109734
0.12705314 -0.11954661 0.0331106 -0.10960944 0.00083416194 -0.1531404 -0.03912133 0.013518404
0.13735852 0.12374672 0.09599654 -0.03881338 -0.045516048 0.0014514625 0.030595792 0.094035335
0.0027659708 0.12003426 0.09705477 -0.016220128 0.051550765 -0.013728445 0.025947897 -0.06499488
-0.07281887 0.064626865 0.013521722 -0.13077627 0.006297737 0.17906083 -0.067965314 -0.07972276
0.09406728 0.17369838 0.12641905 -0.073385954 -0.044050384 0.15585692 0.11252492 0.184562
0.06356471 -0.07942566 0.02719495 0.059569668 -0.04809578 0.07041692 -0.041301884 -0.10716571
0.01007244 0.19621071 -0.078862675 0.10452454 -0.07189227 -0.05179844 0.057128455 0.14116605
-0.11452181 -0.14714286 0.032263733 -0.117958546 -0.050984878 0.07226218 -0.06347535 0.06560812
0.021326862 0.10137603 0.10329044 -0.014536181 -0.078038976 0.0074676676 0.01853532 -0.013277673
0.11828058 -0.0077943294 0.060117893 -0.02647032 -0.012455423 -0.0053806007 -0.0019529337 0.04505223
0.09924506 0.08714301 -0.042233396 0.12333605 0.06890239 0.032685544 0.023335036 -0.058842942
-0.08415469 -0.0074260356 -0.075967126 0.07542878 -0.11332601 -0.09572471 -0.063153505 0.08599992
0.08386016 -0.082335845 -0.06922611 0.038242362 -0.0068520713 -0.09521976 0.035623927 -0.08877926
0.036704466 0.04004029 0.10996227 -0.1058975 0.07215205 0.012047432 0.10316186 0.12819046
-0.017119447 -0.0049453545 -0.018375635 0.11129214 -0.05447732 0.07975867 0.0713285 0.12976773
0.07614362 0.09166459 -0.11134177 -0.034159508 -0.08868839 0.062067136 0.016728453 0.03797055
0.06309557 0.005290717 0.03816691 -0.074993365 0.07546256 -0.09014218 -0.120648034 0.031935293

decoder.0.bias f4 [32]
00000000: eef3 f03d 5825 d2bd 6797 c5bd d9a7 f73c
00000010: 8d32 3e3d ddc0 5d3d 07ba c93d 852b 063e
00000020: 8ee7 323d 7bb5 06be 3dc8 013d 7393 3dbb
00000030: 6fd9 a2bd 1f4b f23d 9842 d23d 21f8 1b3c
00000040: b07d 3cbd bc5e bbbd 5513 df3c 01a6 d5bc
00000050: 621b 123d 8278 b83d 352d 42bd 655e 3e3d
00000060: 11de 833d 8aba 9ebd a988 06be e1d9 543d
00000070: ddb9 42bd 4bcf f63c e627 86bd 9e3f 8c3d
0.11765276 -0.10261029 -0.09648018 0.030231403 0.046434928 0.054139007 0.09849935 0.13102539
0.04367786 -0.13155167 0.031685103 -0.0028926998 -0.079516284 0.118307345 0.10266608 0.009519608
-0.046018302 -0.091489285 0.027230898 -0.026080133 0.035670646 0.0900736 -0.047406394 0.04647674
0.0643884 -0.07750423 -0.13138069 0.051965598 -0.047540534 0.030128142 -0.06550579 0.068480715

decoder.3.weight f4 [32, 1, 2]
00000000: 7132 f6bd 05c5 9dbe 44a0 fabe fb14 ef3e
00000010: df4c e7be 3c95 b13d 4b41 013f b564 26bf
00000020: bed4 11bf 59b6 54be 8c5b a1be 5ac8 f8be
00000030: e81a df3e 9e37 32bf cd75 b1be 629c 0dbf
00000040: 99c5 393e 57c4 bf3d 109f c03e 083e cc3e
00000050: 917d 29be ac6d 69be 7d44 243f e22f 133e
00000060: 2f14 14be 01fc 0ebf 4a6f 2bbf 6374 d5be
00000070: 8fde d8be 683e 2d3d 4ae1 a3be f97b 3abe
00000080: 29b8 253f 2899 16be 08fb 593e 9caa 6c3d
00000090: 7280 f23e a7ef b93e d28c e0bb caa0 c53e
000000a0: 6857 0dbe dbf5 2dbe 47e6 a4be 6d68 0bbf
000000b0: 1745 0f3f 3744 f7be db1a 21bf 7e55 c6be
000000c0: f1fb 013e 9d3e aabd 09c4 b03e 658e ee3e
000000d0: 2350 d23e d5bc 18bf 9ed0 8f3e 1e20 ac3e
000000e0: 25bd b8be d7c5 3abe b811 ed3d 27b6 083e
000000f0: ca90 d33e 1ec1 213f f23a 2a3f 6c11 823e
-0.1202134 -0.30814376 -0.48950398 0.46695694 -0.45175835 0.08671042 0.50490254 -0.64997417
-0.56965244 -0.20772685 -0.31515157 -0.48590356 0.43575215 -0.69616115 -0.34660187 -0.55316746
0.18141784 0.09363621 0.37621355 0.39891076 -0.16551806 -0.22795743 0.64167005 0.14373735
-0.14460824 -0.5585328 -0.6696669 -0.4169036 -0.423573 0.042295843 -0.3200782 -0.18211354
0.6473413 -0.14706862 0.21287167 0.057779893 0.4736362 0.36315653 -0.0068527246 0.38599235
-0.13802874 -0.16988318 -0.32206938 -0.54456216 0.559648 -0.4829423 -0.62931603 -0.387371
0.12693764 -0.08312724 0.34524563 0.46593013 0.41076764 -0.59663135 0.2808885 0.33618253
-0.36081806 -0.18239532 0.11575645 0.13350736 0.41321403 0.631853 0.66496193 0.25403917
