results/models/mc_dropout_tv_ae.pth (torch, 46219 bytes, 7 tensors)

encoder.0.weight f4 [32, 1, 3]
00000000: 6595 ce3e be62 e33e c7c8 30be e327 0d3f
00000010: 2361 85bd d799 0e3e 5944 75be 7a4d b13e
00000020: c5bc 053f ce8d d5be ad7b 213f 659c 903e
00000030: e6c1 ee3e 058c 1a3e 85f4 a13e 009e 08be
00000040: fbf5 cf3e c516 1f3d 9f2d 98be 7dfa 2b3e
00000050: f727 95be 3caa 8abd 9e1f 70be 3c18 c43e
00000060: d9de 3bbf c0b2 0cbf 8820 63be f7bc b1be
00000070: 2133 5f3d 0afb 11bf 7fa3 143f 4f18 cbbe
00000080: f1f3 ff3e 4458 ae3c 44b2 87be f066 d63e
00000090: 5ed8 493e ceea 053f b4d9 263e 6373 3abe
000000a0: fbd8 1e3e b652 20be 7c9c 273e 351a de3e
000000b0: dff6 813e a8d9 a4be 2024 933e 0261 503d
000000c0: ccfd b33e 2e93 94be f610 01bf 3e6b 64be
000000d0: 09bc e2be d58d f23e 2fb8 873e 9b36 b13e
000000e0: 274c 8b3e 6ea2 e53d eb62 d13e 08b5 2ebf
000000f0: 3a93 e23c ef5e d3be a81a 303e e299 4bbe
00000100: c527 353e 8358 f6bd 1fd8 153f f6c4 90be
00000110: 168d 14bf 64f6 84be d9ff 113f 1d60 8b3e
00000120: 1d72 1c3f ad29 d7be 58de 01bf c25b 0bbf
00000130: 5a36 c5be 0947 d83e 6415 363e f3e6 db3e
00000140: 6416 a0be 2b84 c9be 36d7 9c3e e8f7 6ebe
00000150: fe4f c53e 6cf6 45bd 5a6f b83e a1ac e5be
00000160: 182d 95be b73e 343e fca0 2e3e 1f2c 82bd
00000170: ef72 ca3e 31f4 c83e 195d d6be 2fd0 9dbe
0.40348354 0.44411272 -0.1726409 0.5513899 -0.06512668 0.13925873 -0.23951854 0.34629422
0.52241164 -0.4170975 0.6307934 0.2824432 0.46632308 0.15092476 0.31631866 -0.13341522
0.40617356 0.038840074 -0.29722306 0.16794772 -0.29132053 -0.06770751 -0.23449561 0.3829974
-0.73386914 -0.5496025 -0.22180378 -0.3471448 0.05449212 -0.5702368 0.58061975 -0.39666983
0.499908 0.021282323 -0.26503193 0.4187541 0.19711444 0.5231141 0.16293985 -0.18208079
0.15512459 -0.15656552 0.16368288 0.4337937 0.2538366 -0.3219731 0.287385 0.050873764
0.3515457 -0.2901854 -0.50416505 -0.22306535 -0.44284084 0.47373834 0.26507708 0.34611973
0.27206537 0.11212622 0.4089578 -0.6824498 0.027658094 -0.41283366 0.17197669 -0.1988292
0.17690952 -0.12028601 0.585329 -0.2827527 -0.5802778 -0.2596923 0.5703102 0.27221766
0.61111623 -0.42023984 -0.50729895 -0.54436886 -0.3851803 0.42241696 0.17781597 0.42949638
-0.31267083 -0.3935865 0.30632943 -0.23336756 0.38537592 -0.04833071 0.36022455 -0.44858268
-0.29135966 0.17602049 0.17053598 -0.06356072 0.39540812 0.39248803 -0.41867903 -0.30822894

encoder.0.bias f4 [32]
00000000: d9cd 063f 5434 4abe 172f 52be ec03 e0be
00000010: f4d2 97be be31 003e 174a 63bd 0693 d6be
00000020: 8040 1f3e d2eb c9be cb34 eebe 32e2 7dbe
00000030: 80cc e7be ce38 bcbe 4f97 ff3e 626d c73d
00000040: b2d7 713e 30da 09bf d196 8bbe 6a8d 2bbe
00000050: 947f d93d c80d 02bf 8a10 1fbe b6e7 97be
00000060: d1f4 6b3d 571a e5bd 0d66 c3bd 424f c8be
00000070: fd9c c7be 9d74 acbe 7126 18be 6650 e9be
0.5265785 -0.19746524 -0.20525776 -0.43752992 -0.29653132 0.12518975 -0.05549058 -0.41909045
0.15551949 -0.3943773 -0.46524653 -0.24793318 -0.4527321 -0.3676209 0.49920127 0.0973766
0.23617437 -0.5384855 -0.272635 -0.16753164 0.10620037 -0.5080228 -0.15533653 -0.2966897
0.057606522 -0.111866646 -0.09540949 -0.3912297 -0.3898696 -0.3368272 -0.14858414 -0.45569152

encoder.4.weight f4 [64, 32, 3]
00000000: 4a7a 9c3d 756a 5fbc 9652 9e3d a55e 9b3c
00000010: 46ef e4bd a525 773d 3353 163c ff7d 8ebd
00000020: a26b 363c 0661 dabd ccd5 fc3d db83 033e
00000030: 9fff 9b3d dd52 16be 4c2f 0a3e 76a8 8abd
00000040: 157d 3fbc 3b85 6d3c ea1a 3e3d fc37 d13d
00000050: 608b b03d 34bd a5bd c86a d23c 03d0 33bd
00000060: a44b f03d 8351 aabc 2120 613e a269 99bd
00000070: e46c 5f3d 03eb 123d a88f d8bd 9e3c 08be
00000080: a751 4e3d bca9 013d 6a36 1c3d 086a cabc
00000090: 61d2 db3d b8d0 d63d 4116 103e 2a8a b33d
000000a0: e467 ba3c 8e4b 67bd c8d0 45bd 7e5a 0bbc
000000b0: 052a 4e3d 3ae4 f9bc b2f8 37bd 3eb6 17bd
000000c0: a9e1 bebd 1f8d 453d f731 023d 66c8 c4bd
000000d0: dd2e c23c 93f5 573d 1147 a33d 9707 54bd
000000e0: 335f 1b3e d325 f43c 11ab 003e 8264 6b3e
000000f0: 6aaf 40bd 118d 08bb 3d05 39bc 0d28 f9bc
00000100: e99b 853d 67a2 b33d ea7c 99bc 8762 a8bb
00000110: 26d4 563e a272 70ba c624 663d 35a0 cc3d
00000120: 363a 1ebe 4901 46bd 03e2 a33d 2f46 2c3e
00000130: fa2b 923c fa4f 0e3e da13 50bd edcd a1bd
00000140: 8d8a 88bd 0c2d 0d3d 1647 853d c702 413d
00000150: 8500 f3bd dd26 9dbb c2dd 143e cc32 ca3d
00000160: e4e4 713c 0486 d8bc b546 a23d e5e9 89bd
00000170: d949 8f3c 3690 983d 1d16 3ebd d79b a7bc
00000180: 30e7 74bd 4fb3 c43d 81c8 d43d 689a d438
00000190: 00ad efbc b2c9 bfbd ef02 51bd 95e8 843d
000001a0: 6a25 5e3c d47a 033e 16c2 d2bd 2914 593d
000001b0: 609b f0bc 4905 43bd 55ac b9bd ff99 55bd
000001c0: 4812 953d 7f4d 5cbc d98a a1bc baa5 a1bd
000001d0: 7c33 d6bc 261e 93bd 3994 88bd a4ab 0a3d
000001e0: 53dc 42be 19fc bfbd 5744 3fbe 2055 99bd
000001f0: ef84 93bc 98a5 4abd 0137 18bc f7b1 41bd
00000200: d903 8e3d 5931 a6bd a78d 33bc 7eb3 f0bb
00000210: 785b 68bd 51ff 11be 6248 aabc cea1 45bd
00000220: c41f 1b3d f44b c43d a6bc ce3c eb60 f73c
00000230: f111 cd3b d232 c3bc 594f 9e3d 2cc4 62bd
00000240: 1f4f a43d b398 b33d 125c f13d 9537 c5bc
00000250: ffbd abbd 9afa bb3c 2b6d 4bbd d108 fdbd
00000260: 8ba2 bdbd e23a f9bd b473 e2bd bcd5 56be
00000270: fdae 133d 24a3 553c 913b 83bd 4b81 ab3d
00000280: 0a3b af3d 3428 83bc 958c 10be e5f0 06be
00000290: 7ac2 70be ee95 b5bd 863c 4d3c 0f45 7dbd
000002a0: 92bf 2fbd 22bb 8fba 37c6 9bbc 6ab4 47be
000002b0: 1873 23be 12e7 2fbe 4a77 54bd 3aa2 9abc
000002c0: ac80 27bd 7444 af3d f74b 27bd 208c dd3c
000002d0: 4da2 d7bd 6b4f 9ebc 6315 193d 789a 403d
000002e0: ae23 b5bd 7aec 253d aac6 9b3d daf0 e53c
000002f0: 97b4 c43c c412 ce3d 161d 80bc e488 ad3c
00000300: c492 3fbd 8f3a 09bc a2cd ae3d 11a5 cfbc
00000310: 4c59 a8bd 4a6b 14be ef8a 9bbd dbc0 25be
00000320: 4a4d 4cbe 4c52 ccbd da2f 1bbe 1b7f adbd
00000330: 39e2 19be 4f0c 00be e3e7 59bd 4910 39bd
00000340: 4c87 113a a956 7c3d ba9a 2dbd 18bb 46bd
00000350: c982 81bc 3ace c5bc 81f6 53bd cc54 babd
00000360: 5f85 8bbe 5f4b 78be 490b febd 28ec 49bd
00000370: 695d 8cbd fba9 ca3c e458 c63d a33a 043e
00000380: 1941 e83d 146f 6b3d 8285 d1bd a894 cdbc
00000390: 955e 6dba 919b 3dbd c46a 13be 2445 c73d
000003a0: 675c 1cbd 2903 6ebd e073 53bd 64b8 6e3c
000003b0: 75f6 443d a920 823d e5cd d03c d30e 82bd
000003c0: 7d8e b9bd f0cc 46bc 41ce cd3d 082e 713d
000003d0: 9f66 73bd 5c10 59bc 0fd1 6fbe dd89 33be
000003e0: d9e4 2dbe 114e c5bc de0a dbbc 2c89 8dbe
000003f0: a0d7 e43d 509b 6ebd e2df 2f3d 85e2 b03d
0.07640512 -0.013636221 0.07730596 0.018966028 -0.1117845 0.060338635 0.00917511 -0.069576256
0.01113406 -0.10663037 0.12345466 0.12843268 0.07617115 -0.14680047 0.13494605 -0.067704126
-0.011687537 0.014497097 0.046412386 0.10215756 0.08620334 -0.08092728 0.025685683 -0.043899547
0.11733177 -0.020790821 0.21984912 -0.07490851 0.054547206 0.035868656 -0.10574275 -0.13304374
0.05037084 0.031656012 0.03813783 -0.024708763 0.10733486 0.10489029 0.14070989 0.08766587
0.022754617 -0.05646854 -0.048294812 -0.008505462 0.05033304 -0.030504335 -0.04491491 -0.037039034
-0.09320385 0.048230287 0.03178593 -0.096085355 0.023703987 0.052724432 0.07972539 -0.05176505
0.15173034 0.029803192 0.12565257 0.2298756 -0.047042288 -0.0020836035 -0.011292753 -0.030414606
0.06523878 0.0877121 -0.018736321 -0.0051386985 0.20979366 -0.0009172355 0.056187414 0.099914946
-0.15451893 -0.04834107 0.08002093 0.16823648 0.017843235 0.13897696 -0.050800182 -0.07900605
-0.066670515 0.03446679 0.06507699 0.04712179 -0.118653335 -0.0047958926 0.14537719 0.0987297
0.014764044 -0.026431091 0.079236425 -0.06734065 0.017491268 0.07449381 -0.046407808 -0.020460052
-0.05979079 0.09604513 0.103898056 0.00010137708 -0.029257298 -0.09364642 -0.05102819 0.06489674
0.013558725 0.12839824 -0.10290925 0.05299774 -0.029370964 -0.047612462 -0.09066073 -0.052148815
0.072788775 -0.013446211 -0.019719528 -0.07892938 -0.026147597 -0.07183485 -0.06668896 0.033855096
-0.1902936 -0.09374256 -0.18678413 -0.074869394 -0.018007724 -0.04947433 -0.009290458 -0.04728886
0.06934328 -0.08114881 -0.0109590655 -0.007345616 -0.056727856 -0.14257552 -0.020786468 -0.048250012
0.03787209 0.095847994 0.025236439 0.030197581 0.0062582423 -0.023827944 0.07729978 -0.055362865
0.08022904 0.087693594 0.11785139 -0.024074355 -0.08385848 0.022946645 -0.049664658 -0.12355197
-0.09259518 -0.12169434 -0.11057225 -0.2097997 0.036055554 0.013039384 -0.06407846 0.0837427
0.08556183 -0.016010381 -0.14116128 -0.13177831 -0.23511687 -0.088664874 0.012526637 -0.061833438
-0.042907305 -0.0010965804 -0.019015415 -0.19502416 -0.15961874 -0.1717799 -0.051871575 -0.018876184
-0.040894195 0.08557978 -0.04084393 0.027044356 -0.10529003 -0.019324979 0.03737391 0.047022313
-0.08844696 0.040508725 0.076062515 0.028068949 0.024011893 0.10062173 -0.01563887 0.021183439
-0.046770826 -0.008375778 0.08535315 -0.025347264 -0.08220157 -0.14494053 -0.07594859 -0.1618685
-0.19951358 -0.099766344 -0.15154973 -0.08471509 -0.15027703 -0.12504695 -0.05319966 -0.045181546
0.0005551472 0.061606083 -0.042383887 -0.04851827 -0.015809434 -0.024146188 -0.051748756 -0.09098205
-0.27250192 -0.24247502 -0.12404496 -0.04929748 -0.06853754 0.024739256 0.09684923 0.12912993
0.113405414 0.05747898 -0.10230543 -0.025095299 -0.00090549263 -0.046290938 -0.14396197 0.097299844
-0.03817406 -0.058108483 -0.05162418 0.014570329 0.048086602 0.06353886 0.025488803 -0.06350484
-0.090603806 -0.012133822 0.100491054 0.05888179 -0.05942404 -0.013248529 -0.23419593 -0.1753306
-0.1698183 -0.024085077 -0.02673858 -0.27643716 0.1117394 -0.058253586 0.04293812 0.08636955

encoder.4.bias f4 [64]
00000000: d600 a4bd 1783 ee3d 829b c83d e1af be3d
00000010: fcdb 0f3d 15cc 133d 02a1 dd3c f68d 4fbd
00000020: 3ff8 cebd e1e4 0cbc 3d2b f03c 266d 9d3d
00000030: 6c0e a73d 448c 683d fd99 2f3d 0d0a 133c
00000040: eabb 353d b292 283d 1a19 4dbd 7456 22bd
00000050: ffa2 33bd d466 c8bd ef7c 8b3d 4da0 ba3d
00000060: f363 bb3d f7f1 593c a418 48bd aea0 8fbd
00000070: 607b bfbc 484e 4a3d cacc 53ba d9ac 45bd
00000080: d82a d93c b7f7 e7bc 36cd e4bc 2422 c53d
00000090: f732 2ebd d299 b63d e05b b8bc c05b 943d
000000a0: 0cbd 8c3c 6894 a73d 0d5e 22bc 9dbb 27bd
000000b0: 5770 46bd c972 c8bd 9775 b93d 44c5 a73d
000000c0: 40dd f53a e011 b8bd d140 ae3c a498 90ba
000000d0: 54d3 cdbd 4567 99bd 291c 403d d9f0 39bd
000000e0: 4ac7 2fbd 4d4a 76bd a4d9 8f3c 0f2b 52bd
000000f0: 425f 08bd 175c 1d3d aa14 a93d e0f4 0f3e
-0.08007972 0.11646097 0.09795286 0.0931089 0.035121903 0.0360833 0.027054314 -0.050672494
-0.10105943 -0.008599491 0.029317493 0.07686834 0.08157048 0.056774393 0.042871464 0.008974564
0.044368662 0.041155525 -0.050072767 -0.03963323 -0.043856617 -0.09785238 0.068109386 0.09112606
0.09149923 0.013302318 -0.048851624 -0.07013069 -0.02337426 0.04939106 -0.0008079527 -0.048260543
0.026509687 -0.028316362 -0.027929883 0.096256524 -0.042529073 0.08916058 -0.022504747 0.072440624
0.017179988 0.08182603 -0.009910119 -0.040950406 -0.04844698 -0.097875185 0.090556316 0.08191922
0.0018757954 -0.089877844 0.021271141 -0.0011031819 -0.10050073 -0.074904 0.046901856 -0.045395706
-0.042914666 -0.060129452 0.017559834 -0.051310595 -0.03329397 0.0384179 0.082558945 0.14058256

decoder.0.weight f4 [64, 32, 2]
00000000: b12a ad3c f86d 14be 84ab d2bc b055 e33d
00000010: ca30 fc3c ee05 ff3c 121a 123d 4c9f 323b
00000020: bb57 15bd 58b0 8fbd 720a c4bd 9d3f a4bd
00000030: f745 04be ee27 43bd 9d86 913b 0f49 92bd
00000040: 0842 ddbd 28c7 80bd 7887 b33d ea40 db3d
00000050: adf9 a0bd 7136 1bbe 7386 33bd 8702 c3bc
00000060: 3428 c8bd 2869 74be e342 e4bd 56b0 e8bd
00000070: 3038 aabd e94d d73c fd7a bc3d d00f 87bd
00000080: 6c21 1b3d 0829 f93c 5504 dcbd fc70 723d
00000090: 5771 07bd 68b3 afbd 1f9f d4bb ebc3 cc3d
000000a0: 23f7 0ebe ffc8 14be ac39 d7bd 4b67 e73d
000000b0: 4753 833d 39f4 50bd 2ee4 773d 1ccb 92bd
000000c0: 0c8d bd3d 45f9 afbd 0eba e63c ebc2 5b3e
000000d0: df9b 1d3d 8025 f83c d5c2 c5bc 3b4e 7d3c
000000e0: 987f 913d 6773 83bd c506 febc 9060 753d
000000f0: 0202 89bd e715 d03b b790 62bc 5de7 a93d
00000100: 5367 303d 82a8 3e3b dd8f cb3d 0804 75bd
00000110: ac7a c93c 93a9 b7ba e35d 4c3d c0c4 dbbc
00000120: 0096 0cbd 237a 6a3c b955 c0bb 56b3 20bd
00000130: 4c0e 293d aee2 a0bd 50fb adbc 79a8 82bd
00000140: d998 c4bd 4a60 f3bd 0f0c 09be 153f 4abb
00000150: dea8 19be 3aaa fd3d a592 8cbd 1c43 25be
00000160: 67d2 b43d 7e81 023e df0f adba e3ac 4a3c
00000170: 6d0a b03d 95b4 953b 14d2 e9bd 5982 523e
00000180: 3a41 97bd 774d 35bc 723b 90bb 5359 123d
00000190: 43e4 e43d fcb0 17be 2c13 0abe 4904 41be
000001a0: 448a 2b3e 693e 673e 309b 7fbd f077 363d
000001b0: 4ece 6abd 4884 49bd 5877 b23d 1c2f a1bd
000001c0: 22d1 47bd f501 c5bd 015f 45be b789 adbc
000001d0: 9ab7 aa3d 0e5b cbbd 32db 103d 82b9 76bd
000001e0: 4dd9 013e dbb8 e5bd 6604 f83c 9e45 bcbd
000001f0: fae1 523c 3a68 1ebe 0067 00bd 062d 4e3c
00000200: 1400 1a3e 4077 053e 8004 ba3d bfa2 11bd
00000210: 9866 0bbd dc06 b4ba e3d1 6a3d 2854 bf3d
00000220: 82c5 bd3c eac9 063e c832 e33d f923 1fbc
00000230: d62e 323d 3695 77bc e70c 2b3d 189a 73bd
00000240: b644 83bd 571e 8e3d b937 813c 539c 23be
00000250: c052 d13b 22df 3f3e bcb0 87bd ece5 95bd
00000260: 8ddf fc3d 9a62 473e 08d6 103e c5cb 88bd
00000270: e5eb 0dbd 2c3a 2d3e 7621 a23b 60d5 553e
00000280: aebf 7d3d d17d a2bd 328d de3c cf1e 0b3d
00000290: 296c 58bd cbf4 9d3d 088a 42bd a870 e4bd
000002a0: 091c e13c 265b 533e b9bf 84bd d4c8 df3d
000002b0: f46a 8abd c9f1 3fbd 441c 973d 4338 163e
000002c0: 49c4 e8bd add1 13be dbdd 063d 4c13 fabd
000002d0: 5185 54bd 32fe 933d 44b7 81bd c6b8 7a3d
000002e0: 5dad 1a3d 4d61 da3d 9170 e03d a31d 423a
000002f0: 91be 9bbd 793c 073c 8915 ab3c 6216 5cbc
00000300: b4e5 a13d 09fe bdbd 93bf 053e 3e8c 36bd
00000310: 23f4 283d c04f b0bb 9064 11bd 9558 a8bc
00000320: cbd9 043e 7ccb 853d 7d73 15bd df47 bc3d
00000330: 5f68 cbbc e9f4 cf3c a45b 963c d7ef b6bd
00000340: fbd2 26be 078a 8ebc e5f0 31be 624e 793d
00000350: 5b0a 04be 5e7a 2ebe 2132 2abe 3bd0 90bc
00000360: 3017 af3d 977c 86bd 70e9 43bd 5a27 4e3c
00000370: be60 85bc fc6a 9cbd 4acd fe3c cd31 cbbd
00000380: 3124 b9bd f356 0e3d 38ff e03d 0b32 aebd
00000390: f684 693c 3c2d a53b b1bd 78bc 0287 2f3e
000003a0: a3e4 283b 36ee abbd a6fd 47bc 0241 b53d
000003b0: 8cbc 7cbd 0a89 853d 33f3 e53d 8f5c c73d
000003c0: 2bbd 633b d61d 05be 53b8 4abe 8ae1 f1bc
000003d0: cc48 cebd 1c3a 7e3d 4fa8 833c 0faa 333c
000003e0: 8bca 933d b085 c8bb d7eb 55bd 6810 37bc
000003f0: 0640 e1bc 7980 eabd 6de6 61be e6e8 e23c
0.02113852 -0.14495075 -0.02571655 0.11100328 0.030784983 0.031130757 0.035669394 0.0027255593
-0.03646062 -0.07016057 -0.09572305 -0.08019946 -0.12917314 -0.0476455 0.004441096 -0.07142841
-0.1080361 -0.06287986 0.08766073 0.10705741 -0.07860122 -0.15157486 -0.043829393 -0.023804916
-0.09773293 -0.23868239 -0.1114557 -0.113617584 -0.08311498 0.026282268 0.09203146 -0.06594813
0.03787367 0.030415073 -0.10743014 0.05918978 -0.033067074 -0.08579141 -0.0064886953 0.09998306
-0.13961463 -0.14529799 -0.10509047 0.112989984 0.06412368 -0.05101416 0.060520343 -0.07167646
0.09255418 -0.08592466 0.02816489 0.21461074 0.03847873 0.030291319 -0.024140755 0.015460546
0.07104415 -0.064184956 -0.031009087 0.059906542 -0.06689836 0.006350267 -0.013828448 0.08296082
0.043067288 0.0029092138 0.09939549 -0.059818298 0.024594627 -0.0014012329 0.049894225 -0.026827216
-0.03432274 0.014311346 -0.005869594 -0.039233528 0.0412734 -0.07855736 -0.021238 -0.0637979
-0.09599466 -0.118836 -0.13383506 -0.0030860354 -0.15005824 0.12385984 -0.06863908 -0.16138881
0.088291936 0.1274471 -0.0013203582 0.012370321 0.085957386 0.004568646 -0.11417022 0.20557536
-0.07385488 -0.011065832 -0.0044016177 0.035729717 0.1117635 -0.14813608 -0.13483876 -0.18849291
0.16751963 0.22582401 -0.062403858 0.044547975 -0.057325654 -0.04919842 0.08714169 -0.078703135
-0.04878343 -0.09619514 -0.19274522 -0.021183832 0.083358005 -0.09929477 0.03536529 -0.060235508
0.1268055 -0.11216899 0.030275535 -0.09192966 0.01287126 -0.15469447 -0.03134823 0.012583977
0.15039092 0.13033772 0.090828896 -0.035555597 -0.034033388 -0.0013734954 0.05732907 0.093422234
0.023165468 0.13162962 0.1109367 -0.009713166 0.043501697 -0.015111258 0.04176035 -0.059473127
-0.0640959 0.069393806 0.015773641 -0.15977602 0.0063880384 0.18737462 -0.06625506 -0.07319245
0.123473264 0.19471207 0.14144146 -0.06679491 -0.034648795 0.16916722 0.0049478365 0.20882177
0.061950378 -0.07934154 0.027166937 0.03396493 -0.052837525 0.07712706 -0.047494918 -0.111543
0.027479189 0.20640239 -0.06481881 0.10926977 -0.06758681 -0.046861444 0.07378438 0.146699
-0.113655634 -0.14435454 0.03292642 -0.12210712 -0.051884953 0.07226218 -0.06333783 0.06121137
0.03776299 0.1066309 0.1095897 0.0007404929 -0.07604707 0.008254164 0.020884292 -0.013433071
0.079051405 -0.09276969 0.13061361 -0.04456734 0.041248452 -0.0053806007 -0.035496294 -0.020550052
0.12973706 0.06532952 -0.03648709 0.09193396 -0.024830041 0.025385337 0.018354245 -0.089324646
-0.1629142 -0.017399801 -0.1737705 0.060865767 -0.12894575 -0.17038867 -0.16620685 -0.017677417
0.085493445 -0.065667324 -0.047830045 0.012582624 -0.016281482 -0.07637593 0.031103749 -0.09921608
-0.09040106 0.03475089 0.10986179 -0.08505639 0.014252892 0.0050407927 -0.015181945 0.17141345
0.0025771044 -0.083950445 -0.012206471 0.0885029 -0.06170325 0.06520279 0.11228027 0.09734451
0.0034750204 -0.12999663 -0.19796877 -0.02952649 -0.10072479 0.062067136 0.016071467 0.010965838
0.072163664 -0.0061194524 -0.052226868 -0.011173345 -0.027496349 -0.114502855 -0.22060557 0.027698945

decoder.0.bias f4 [32]
00000000: 16ee f73d 4fef d1bd 7843 c7bd 0f55 fb3c
00000010: d793 333d 6538 683d 3482 ca3d 94ef 073e
00000020: ed93 343d 4688 08be ea16 143d eb52 f8ba
00000030: 634e a5bd c119 f33d 2ca9 cc3d 98b5 4abc
00000040: 3b89 39bd 7fdc f4bd 4831 dc3c 6dc5 99bc
00000050: e782 293d d978 bb3d 59cf 49bd 8a79 3c3d
00000060: 0f3e 843d 0544 9ebd 3040 0bbe 4de0 543d
00000070: 60be 41bd 5a89 fe3c 6183 87bd 18b0 8c3d
0.12105958 -0.102507226 -0.097296655 0.030680208 0.043842163 0.056694407 0.098881155 0.13274986
0.044086386 -0.13333234 0.036154665 -0.001894561 -0.08071592 0.118701465 0.099932045 -0.012372397
-0.04529689 -0.11956119 0.026878968 -0.018770898 0.041384604 0.09153909 -0.049270008 0.046014346
0.06457149 -0.077278174 -0.13598704 0.051971722 -0.047300696 0.031071354 -0.066168554 0.06869525

decoder.3.weight f4 [32, 1, 2]
00000000: dff8 09be ef32 94be 42ff fcbe 71b3 eb3e
00000010: 2652 e6be 5409 8b3d e3e0 043f a95b 1ebf
00000020: c8b8 0abf e096 74be 8e9f a6be ece4 f1be
00000030: 81f7 e03e bff6 31bf d58c b4be 2f5e 0abf
00000040: 323c 383e a1be cd3d 0670 c23e 12ca d13e
00000050: 4eef 37be 1caa 65be d4e6 213f 2e22 1a3e
00000060: c27a 2ebe 4416 11bf e181 2abf 137c dcbe
00000070: 077e d5be 5cc5 333d 3e09 a0be 28c7 40be
00000080: 8079 253f ad52 1ebe 6152 863e 7393 2f3e
00000090: dccf ef3e 9ce9 b43e 8d82 10bc 156d c43e
000000a0: 5d43 16be 6cf3 28be f1f2 a9be f09d 05bf
000000b0: b5c5 0f3f be86 f6be 9248 1fbf dfe5 cebe
000000c0: a3c9 003e fae5 aabd 46a5 b03e eb3a ee3e
000000d0: 1948 d23e bf90 18bf a028 903e 779b ac3e
000000e0: bb1e b4be 79a8 50be 0744 e83d f77e 103e
000000f0: b0a6 d33e b633 203f e5e8 293f b3a5 8e3e
-0.13473843 -0.2894511 -0.49413496 0.4603534 -0.4498455 0.067888886 0.5190565 -0.6185861
-0.54188204 -0.23885679 -0.32543606 -0.47244966 0.4393883 -0.6951713 -0.35263696 -0.5404996
0.17991713 0.10046125 0.37976092 0.4097448 -0.17962381 -0.22428173 0.6324284 0.15052101
-0.17039016 -0.566746 -0.6660443 -0.4306341 -0.41697714 0.04388939 -0.3125705 -0.18825972
0.6463852 -0.15461226 0.26234725 0.17146091 0.46838272 0.3533448 -0.008820188 0.38364473
-0.14674135 -0.16499108 -0.33193162 -0.5219412 0.5616105 -0.48149675 -0.6222011 -0.40409753
0.12576918 -0.08344646 0.34501094 0.46529326 0.4107063 -0.59595865 0.28155994 0.3371236
-0.35179695 -0.20376767 0.113411 0.14110933 0.4133811 0.62578905 0.66370994 0.27860793
